.dart_tool/chrome-device/Default/optimization_guide_prediction_model_downloads/e21f29d5-3872-4463-8f77-c2340ffbb952/model.tflite (tflite, 410364 bytes, 166 tensors)

context_transformer_0/bottleneck_input/norm/add f4 [32]
000000 e0 b7 c4 bb 06 21 0a 3e 3c 2b 37 3d ed af 5e 3e
       -0.006003365 0.1348916 0.044718966 0.21746798
000010 71 59 e7 bc 12 ea 96 bd 60 df 54 bd 73 9c d3 bd
       -0.028240891 -0.07368864 -0.05197084 -0.10332575
000020 79 c0 90 3e 8f 81 60 3e a6 32 00 3d 78 38 b9 bc
       0.28271845 0.21924423 0.031298302 -0.022609934
000030 56 90 d0 3d bc f4 41 be 22 8d 20 3d 4d cf 81 3b
       0.1018378 -0.18941015 0.039197095 0.0039614798
000040 e0 5e 74 3c e7 e9 b2 3d 00 ab 8a 3c 13 c1 01 3c
       0.014915198 0.087360196 0.016927242 0.007919568
000050 b1 61 96 bd 74 fc e6 3b 52 79 55 3d 8e 97 73 bd
       -0.07342852 0.0070491377 0.052117653 -0.059470706
000060 4f d5 3c 3d cc a0 39 3e 76 35 1f bd 71 d2 9e 3d
       0.046101864 0.18127745 -0.038869344 0.07754982
000070 86 ba 03 39 c4 d6 7f 3c c2 54 ce 3d 48 92 8a 3e
       0.00012562619 0.015615169 0.1007476 0.2706473

context_transformer_1/bottleneck_input/norm/add f4 [32]
000000 16 f6 13 bd 82 b8 ac 3d c6 8c 1f be 82 77 92 3d
       -0.036123358 0.084336296 -0.15581045 0.071517006
000010 4f ba 22 3d 28 3e 29 bc ad 12 86 be b8 33 68 bb
       0.03972846 -0.010329761 -0.26186123 -0.0035431217
000020 6d ce 31 3d 34 96 82 3c 33 41 84 be 57 44 eb bd
       0.043409754 0.015940763 -0.25830993 -0.11487644
000030 36 a0 08 be 88 0f 51 bd 69 92 ac 3d aa d6 2a 3c
       -0.13342366 -0.051040202 0.08426363 0.010427156
000040 64 96 f1 bb 5b 5b 0a 3e a4 50 4f 3d 86 7a b3 bd
       -0.0073726643 0.13511412 0.050614014 -0.08763604
000050 e4 5d e3 bb de 77 dd 3d e1 56 3a 3d 77 4f ac be
       -0.006938683 0.108138785 0.04549301 -0.33654377
000060 1e 4f 14 bc a4 f4 eb bc 38 1f 80 3d 7e 02 91 bc
       -0.009052066 -0.028803177 0.062559545 -0.017701384
000070 e2 ef e1 bd f7 40 a0 be 86 d9 72 3d b7 63 06 bd
       -0.11032082 -0.31299564 0.059289478 -0.03280994

mention_transformer_0/bottleneck_input/norm/add f4 [32]
000000 18 aa 0a be c8 49 a2 3b da 12 e0 bd 36 ac 5d 3e
       -0.13541448 0.004952643 -0.10941096 0.21647725
000010 c1 a0 8c be 46 a3 14 3e ce 9f e8 3c d0 fb 88 bd
       -0.27466395 0.14515409 0.028396513 -0.066886544
000020 60 dd 56 3e 36 a4 c4 bd d9 ce 92 3c 37 25 05 3e
       0.20982885 -0.09601633 0.017920898 0.13002478
000030 32 5e 41 bd af f5 df bd 78 c4 26 bc 11 30 58 3e
       -0.047208972 -0.10935532 -0.010178678 0.21112086
000040 3b 5d 9e bb 98 14 62 3d f4 47 67 bc 47 7f ee bc
       -0.0048328913 0.05519542 -0.014116276 -0.029113425
000050 c6 5f 73 3e 24 3e fc 3d 1a 79 87 be c1 32 a1 3c
       0.23767003 0.1231654 -0.2645958 0.019677522
000060 60 2b 33 bd 38 21 b1 bc aa 25 02 bd ed e9 f8 bd
       -0.043742537 -0.021622285 -0.0317742 -0.12153993
000070 10 6f 53 3e 0e e0 8b 3e 94 ce 84 be 16 8c 33 3e
       0.20647836 0.27319378 -0.25938857 0.17533907

mention_transformer_1/bottleneck_input/norm/add f4 [32]
000000 25 ef 0f bd 90 e5 89 3d 41 87 00 3e 78 6e 93 bd
       -0.035140175 0.06733239 0.12551595 -0.071988046
000010 fa 44 42 3e 06 ed 69 3e 92 3d 25 3e 64 74 1f be
       0.18971625 0.22844324 0.16136768 -0.15571743
000020 bc fb 14 bf de af c8 3d 92 40 66 be 38 b5 20 bd
       -0.58196616 0.09799169 -0.22485569 -0.039235324
000030 96 3a 4a bc c4 8e 80 3e a2 76 8d be 68 af ac 3e
       -0.01234307 0.25108922 -0.27629572 0.33727574
000040 62 9a 53 3e 6a f5 7d bd a1 e8 75 be f5 99 1d 3e
       0.20664361 -0.062001623 -0.24014522 0.15390761
000050 a7 b6 4a 3d c2 90 9a bd 6e ea 2f 3e fd ea 82 be
       0.049490597 -0.075471416 0.17179272 -0.25569907
000060 be c6 60 bd b0 30 c6 3c 94 1d 0e 3d 3a ed 2b be
       -0.054877035 0.024193138 0.034696177 -0.16789714
000070 78 85 05 be 06 77 71 3e c8 0b b8 3e b4 7b 27 3e
       -0.13039196 0.2358056 0.35946488 0.16355783

context_transformer_0/attention/value/add;context_transformer_0/attention/value/einsum/Einsum;context_transformer_0/attention/value/add/ReadVariableOp/resource f4 [32]
000000 b2 50 a0 bd 1c 03 a6 bc 8c a5 88 bd a7 9d 80 bd
       -0.078278914 -0.020265155 -0.066722006 -0.0628007
000010 b1 2b a0 bd a9 aa 87 3d 6f 2c 41 3d f8 79 30 bd
       -0.078208335 0.06624348 0.047161516 -0.04308507
000020 f7 7f 73 bd 3f 5c 48 bd 2d 3a 32 3d a0 08 bb 3c
       -0.05944821 -0.048916098 0.043512512 0.022831261
000030 d6 e2 16 3d ab d9 38 bc 8a 71 55 3d 68 c4 5d bd
       0.03683742 -0.011282365 0.052110232 -0.054142386
000040 b4 02 9b bd b6 94 66 bd 22 9e 70 bd 18 0e ae 3d
       -0.07568875 -0.056294166 -0.058744557 0.08498782
000050 e7 2a ae 3d 35 51 a7 3d 9b 79 9c bc 12 80 a5 3d
       0.08504277 0.08169786 -0.019100955 0.08081068
000060 75 a4 87 bd cc 6f 8d bc b8 07 ba 3d c0 c9 19 3d
       -0.066231646 -0.017265223 0.090835035 0.03754592
000070 a6 1b 87 3d 08 fd 8b 3d 31 6c 41 3d e2 ec 57 bd
       0.065970704 0.06835371 0.04722232 -0.052716143

context_transformer_0/bottleneck_input/norm/mul f4 [32, 32]
000000 25 b4 d2 3e 45 de ce bd 39 fc 23 3e f9 8e d7 3e
       0.41153064 -0.10100988 0.16014184 0.42101267
000010 d4 c9 c1 be 8e 25 b9 3e ee fd 9c 3e ab f1 90 3e
       -0.37849295 0.36161464 0.30662483 0.28309378
000020 66 1f af be 97 19 76 3e 87 d6 17 be 47 e1 44 be
       -0.34203643 0.24033199 -0.1482793 -0.19226561
000030 6d c2 f2 3d f9 03 8a be 41 b4 de bd 80 d6 98 bb
       0.1185349 -0.26956156 -0.108742245 -0.0046642423
000040 9e 31 dc be 41 99 51 3e fc 33 eb b9 49 25 25 be
       -0.43006605 0.20468618 -0.00044861424 -0.16127504
000050 f1 80 a8 bd 70 95 1a be 45 a0 f8 be 02 cc d4 be
       -0.082277186 -0.15096068 -0.48559776 -0.41561896
000060 99 c7 64 3f 2c 58 19 be c0 0e d1 be 73 00 93 3e
       0.8936706 -0.14975041 -0.40831566 0.2871128
000070 21 91 63 3e c5 06 bc be b4 07 fe 3e 0c 45 94 be
       0.22223331 -0.36723915 0.49615252 -0.2895893
000080 01 ad 61 be 9b a8 46 bd a7 cb 3a 3e 44 32 cd 3e
       -0.22038652 -0.04850064 0.1824175 0.40077412
000090 25 41 81 3d 08 9f a2 3d ab 98 6b bf d0 aa 9e 3e
       0.063112535 0.07940489 -0.9202983 0.30989695
0000a0 55 24 c6 be 0a 57 92 bd 8d 89 f0 be 17 64 d0 bd
       -0.38699594 -0.07145508 -0.46979943 -0.101753406
0000b0 94 ed 0a bf e8 6e be 3e 4c fd bb bc 9a 81 ae bd
       -0.54268765 0.3719399 -0.02294793 -0.08520813
0000c0 4f 66 cb be 75 97 ba be b5 86 7f bd c8 99 e1 3e
       -0.39726493 -0.36443678 -0.062384326 0.44062638
0000d0 af 4d 5c 39 2a b0 2a be ee 2d 2f 3d 95 6b 07 be
       0.00021009774 -0.16668764 0.04276841 -0.13224633
0000e0 bc b3 02 3f a9 82 4b bd a5 95 5a 3f 00 54 fd 3d
       0.510555 -0.049685154 0.8538459 0.12369537
0000f0 bb 3d 1e bf 01 7f 6c 3e a0 0c 04 3d f6 26 0f be
       -0.61812943 0.23095323 0.032238603 -0.13979706
000100 de ff b3 3d 1c e0 00 bf 96 bb bb 3e 61 b9 a9 3d
       0.08789037 -0.50341964 0.36666554 0.08287311
000110 d3 33 42 be d6 98 d1 be b6 ef 46 be 20 f2 55 3e
       -0.18965082 -0.40936917 -0.1942738 0.20893145
000120 f9 7d a2 be 87 95 0d bc 30 c2 d3 3e f0 8c 03 3f
       -0.31736735 -0.008641607 0.4135909 0.5138693
000130 57 5f 2c bf e8 c5 55 3e cd 3c 80 3e 3d c9 1c 3e
       -0.6733298 0.20876276 0.25046387 0.15311141
000140 21 87 a9 3b 36 2e d3 be 2a 09 7f 3e 61 9d b7 3e
       0.0051735793 -0.41246194 0.2490584 0.35862258
000150 7c 16 ea 3d 5a df 64 3e 5c 63 f3 3e 74 df 63 bd
       0.1143007 0.22350827 0.47536743 -0.055633023
000160 94 8c 58 3e 0e 8c f3 3d dd 0b b9 3e 83 dc 29 be
       0.21147376 0.11891948 0.36141863 -0.16588025
000170 29 51 c5 3e 1c 44 f0 3c 38 1b 0d 3e ce 25 01 bd
       0.38538483 0.029329352 0.13779914 -0.031530194
000180 dc b4 f7 bc 9d f8 6f 3d 13 63 bb bd 58 2a 63 3d
       -0.030237608 0.058586705 -0.09149756 0.055460304
000190 52 09 c4 3d 5a e1 1a bd a4 9b 81 3d 93 1e 39 bd
       0.0957209 -0.03781257 0.06328514 -0.045195173
0001a0 87 3a 87 3e 32 a2 31 be 86 81 43 be 04 04 79 be
       0.2641184 -0.17347029 -0.19092378 -0.24317938
0001b0 24 29 0f be f4 c4 64 3e 90 c0 1f 3d fc 20 63 3e
       -0.13980538 0.22340757 0.039002 0.22180551
0001c0 f7 19 58 be 88 8c e6 3d 54 1f 26 3e 6a 93 90 be
       -0.21103655 0.11257273 0.16222888 -0.28237468
0001d0 72 a0 af 3d 98 44 19 bd ce 2a c8 3d 75 30 cb bd
       0.085755244 -0.03741893 0.09773789 -0.09921352
0001e0 44 69 ff 3d a9 e0 3e 3c 58 7f 06 3e 94 8c 43 3e
       0.1247125 0.011650243 0.13134515 0.19096595
0001f0 dc b3 9a bd ec 08 83 3d 39 16 dd 3d 77 25 11 3e
       -0.07553837 0.06398186 0.10795254 0.14174448
000200 9f 1d 6c 3e f4 0e 75 3d 24 c7 40 be 82 4b b5 3d
       0.23058175 0.059828714 -0.18825966 0.088522926
000210 e3 97 89 3d f0 34 d9 be 34 d4 27 3e d4 4a a0 bd
       0.06718423 -0.424232 0.16389543 -0.07826772
000220 7a 30 6c be c9 dc 05 be a9 59 3a bd c9 9d 3e 3e
       -0.23065367 -0.13072504 -0.045495663 0.18614878
000230 95 3d 85 3e ba 47 a4 bd 45 35 09 be e2 1a fa 3d
       0.26023546 -0.08021493 -0.13399227 0.12212159
000240 9e 2b b1 3c ae 7e 97 be 9a 90 d0 3c 0a d4 9b 3d
       0.021627244 -0.29588836 0.025459576 0.076088026
000250 82 4f a6 bd 46 b3 d5 3d 56 30 58 be f6 0a f8 bd
       -0.08120634 0.10434584 -0.21112189 -0.12111466
000260 51 87 38 be e8 eb 23 3f 29 9d 85 3c 1e 40 ce be
       -0.18020369 0.6403184 0.016310291 -0.40283293
000270 91 e8 40 bc db d0 03 bf ef d4 51 3d 98 ce 7b 3e
       -0.011774198 -0.51490563 0.05122846 0.24590528
000280 b6 a5 72 3e 30 19 a1 be e8 77 c1 3d ce 7c 9b be
       0.23696026 -0.3146453 0.094466984 -0.30368656
000290 fd 78 a5 be c9 a4 7a 3d 84 1c aa 3e 53 3c 08 bf
       -0.3231887 0.061192308 0.3322488 -0.5321705
0002a0 28 12 c6 3e c6 2a c9 3e 29 40 b9 3e cf 6c 78 3d
       0.38685727 0.39290446 0.36181763 0.060650643
0002b0 68 91 41 be d2 fd 94 be 62 18 6c be 02 90 ad 3e
       -0.18903124 -0.290999 -0.23056176 0.33898932
0002c0 1e 9b 66 be 98 1d 81 3b e8 cb ab 3d 4c 3d e6 3e
       -0.2252011 0.0039402954 0.083885014 0.4496864
0002d0 8e 33 07 bd bf ee 30 be 80 09 26 bf af 04 d6 3c
       -0.03300815 -0.17278574 -0.64858246 0.02612528
0002e0 ea 0c 88 3d fc f4 83 be 92 54 56 be 82 43 1a 3f
       0.06643088 -0.25772846 -0.20930699 0.6025926
0002f0 2d d5 32 3b 10 f7 49 be 14 4e 69 3e 71 d0 d1 be
       0.0027287707 -0.19723153 0.2278369 -0.4097934
000300 f3 81 a4 3e 7a 8f d2 bd 7f ff 8a 3e a1 01 31 3e
       0.32130393 -0.10281272 0.27148053 0.17285778
000310 e5 54 c2 bd d9 0f 9b be 7e 10 64 bd a1 40 0e 3e
       -0.094888486 -0.30285528 -0.05567979 0.13891841
000320 6b 5b 04 be ee 31 ff 3c ba b9 b0 be 29 87 3c 3e
       -0.12925498 0.031151738 -0.34516698 0.18410935
000330 a5 e5 ee bd b9 fd a1 3e 1a 87 3f 3e 31 2a b7 bc
       -0.11664895 0.31638888 0.18703881 -0.022358986
000340 46 13 6c 3e ac f6 73 be 31 e8 e4 3e 70 89 df 3d
       0.23054227 -0.23824567 0.44708398 0.10914886
000350 85 21 28 be d6 15 01 be e9 bc ae 3e a2 c4 8e be
       -0.16419037 -0.12605986 0.34128502 -0.27884394
000360 ce 22 a2 3b 48 46 bd be 58 2e 1a be 44 56 38 be
       0.0049479967 -0.36967683 -0.15056741 -0.18001658
000370 e5 5c 84 be 1d 1f 3c 3e 7d c4 e1 3d cb c6 f4 3d
       -0.25852123 0.18371244 0.11023805 0.11951979
000380 cd a4 8f 3e 69 52 20 3e 27 30 b2 bd c3 2c 28 3e
       0.2805542 0.15656437 -0.087005906 0.16423325
000390 77 6a 6a be 20 a7 8a 3c 08 7f cc 3d bf 64 e4 3c
       -0.22892176 0.016925395 0.09985167 0.02788007
0003a0 31 c1 ee bd e2 19 a6 3e fd f2 81 bd e2 c2 f1 3c
       -0.11657942 0.32441622 -0.063451745 0.029511873
0003b0 31 49 57 3d 96 b7 aa bd e0 18 1a be f0 f2 81 be
       0.052560035 -0.083357975 -0.15048552 -0.2538066
0003c0 b1 5e cc bd a1 25 a8 bd 06 a8 c8 3d 77 ae 55 3e
       -0.099789985 -0.08210302 0.09797673 0.20867334
0003d0 58 f1 e9 3d 0d 14 8b 3d f0 6e 90 be dd 0d 0d be
       0.11422986 0.06790934 -0.2820964 -0.1377482
0003e0 af 9a a1 bd 0c 03 f9 3b aa de 22 be 1b db 98 bd
       -0.07890832 0.00759924 -0.15905252 -0.07463666
0003f0 a5 58 62 bc 21 01 69 be c5 6e e5 3c f1 9e a6 bd
       -0.01381508 -0.22754337 0.02800692 -0.081357844

context_transformer_0/kq_shared_bottleneck/norm/mul;context_transformer_0/kq_shared_bottleneck/norm/add;context_transformer_0/attention/key/einsum/Einsum;context_transformer_0/attention/key/add;context_transformer_0/attention/value/einsum/Einsum;context_transformer_0/attention/key/add/ReadVariableOp/resource f4 [32]
000000 35 f3 5e bc 7e d9 2f bd a2 37 ca 3d c9 2b f0 bc
       -0.01360779 -0.042932026 0.09873892 -0.029317753
000010 33 fd d6 3d ef 0e 57 3d d7 13 99 3d 58 c4 a0 3d
       0.10497513 0.052504476 0.07474487 0.078499496
000020 69 39 c4 3c a8 3f 8b bd ff 99 91 3d 51 5e 96 bc
       0.023953157 -0.06799251 0.071094505 -0.01835552
000030 a0 db 03 bd e2 f9 30 3d 98 6a d4 3c 1a c2 8f bc
       -0.032191873 0.043207057 0.025929734 -0.01754861
000040 34 ed 06 be 36 58 2a 3e 5d 7d 0a 3e 4b a1 27 be
       -0.13176423 0.16635212 0.13524385 -0.16370122
000050 df a7 45 3e f5 cd 5b bb 5a 17 1e be d8 1c 5b 3d
       0.19302319 -0.0033539508 -0.15438595 0.053494304
000060 4b 8a f3 bd 15 18 a9 3d d2 1e 12 3e 92 16 83 be
       -0.11891612 0.082565464 0.1426957 -0.25603157
000070 b4 39 ff 3d 39 fb c8 3d 8d b7 4d 3e 83 ef 97 bd
       0.12462178 0.09813542 0.2008955 -0.0741873

context_transformer_0/kq_shared_bottleneck/norm/mul;context_transformer_0/kq_shared_bottleneck/norm/add;context_transformer_0/attention/key/einsum/Einsum;context_transformer_0/attention/key/add;context_transformer_0/attention/value/einsum/Einsum;context_transformer_0/attention/key/add/ReadVariableOp/resource1 f4 [32, 32]
000000 e6 ec 1f 3d 95 98 12 3e d0 1e 86 bd ff 7b 8a 3d
       0.039044283 0.14316018 -0.06548846 0.06761932
000010 bb d5 82 bd 4c 73 a1 bc b7 1d 4b bd e8 0a 12 bd
       -0.06388422 -0.019708298 -0.049588885 -0.035654932
000020 de ff af 3d f6 6b 26 3c b4 6e 0b ba d7 eb 2e 3c
       0.08593725 0.010157576 -0.0005318925 0.010676346
000030 0c 95 b1 3c 1f 5c 14 3d a8 d8 69 bd 5d f9 6b 3d
       0.021677516 0.036220666 -0.057091385 0.05761086
000040 74 69 8a bd dc c8 90 be 1c 88 a3 3c c8 62 ac bc
       -0.06758395 -0.28278244 0.019962363 -0.021043196
000050 be d0 26 bd a8 cd 2a 3d e8 9e a6 3d 55 c5 2c 3d
       -0.040726416 0.041700035 0.08135778 0.042180378
000060 ec f3 4f bb b1 a3 01 3e cd dc 65 bd a0 22 b5 3d
       -0.0031731082 0.126601 -0.056118775 0.08844495
000070 f3 80 13 be f1 e0 00 3d c6 32 02 be 7d c9 c2 bc
       -0.14404659 0.03146452 -0.12714681 -0.023777718
000080 63 70 a0 bb dc d9 10 be f3 62 24 3d 99 76 ab bd
       -0.00489621 -0.14145607 0.040133428 -0.0837223
000090 c6 e0 a2 3d 13 55 93 3d 3d 90 58 3d d5 e5 19 3d
       0.079530284 0.07193961 0.05287193 0.0375727
0000a0 21 ee 14 bd 21 59 af bd bc 69 8d bc 0b f0 06 bd
       -0.03635991 -0.08561922 -0.017262332 -0.032943767
0000b0 84 ae 8c bd f0 91 03 3d 89 1d 18 bc 27 af 73 3c
       -0.06869224 0.0321216 -0.0092843855 0.014873303
0000c0 27 fd e5 3d 7f 48 88 3e 20 ae 7d bc 4f e0 ae 3d
       0.112299256 0.2661781 -0.015483409 0.08538877
0000d0 97 70 66 3d 6d 76 47 bd 43 fe 84 bd e5 0f 31 bd
       0.056259718 -0.048696924 -0.06493809 -0.04322805
0000e0 d9 e2 44 bc 60 d0 67 bd 22 11 90 3d 97 9c 7a bd
       -0.012016975 -0.056595206 0.07034518 -0.061184492
0000f0 27 43 3f 3e 7d f2 f4 bc ff 73 19 bb ac 89 6f 3d
       0.1867796 -0.029900784 -0.0023415086 0.058480904
000100 e5 9b 10 3d fe 63 f3 3d 81 54 0b bd 19 77 ed 3d
       0.035304923 0.11884306 -0.034016136 0.11594982
000110 9e be da bd 9e ab d2 bd e7 05 8b bc 8f cf 9b bd
       -0.106808886 -0.1028664 -0.016970588 -0.07607948
000120 06 75 c8 3b b8 c6 e8 3d a5 48 57 3d 2f 17 98 3d
       0.006117466 0.113660276 0.052559514 0.07426297
000130 4b 41 c3 3d 11 ae 30 3c a0 3c 2c bc d9 53 f2 bd
       0.09533938 0.010783688 -0.010512501 -0.11832399
000140 cd fd 14 be 92 b2 1f be 58 d4 2d 3a c0 ce f6 bd
       -0.14549942 -0.15595463 0.0006631068 -0.12051153
000150 a5 0c 6e bd a3 21 e1 3c ad 98 8a 3d 1c 9f 42 bd
       -0.058117528 0.02748186 0.06767402 -0.04751502
000160 fb 74 f7 3c 43 7b 6b bd 15 0d ce bd ff c9 a8 3d
       0.030207148 -0.0574906 -0.10061089 0.08241653
000170 0a 94 57 be 57 48 eb 3c 49 06 0f 3e 46 00 ee bd
       -0.21052566 0.028721018 0.13967241 -0.11621146
000180 f8 e1 34 bc 6f 91 04 be f6 49 36 3d c2 b4 5b bd
       -0.011040203 -0.12946104 0.04450413 -0.05363918
000190 3b d5 98 3d cf 0f 8f 3d cf a5 81 3b 9c 4d aa 3c
       0.074625455 0.06985437 0.0039565335 0.02078896
0001a0 7d 6d 13 bd 12 9d 60 bd f5 1f 27 bd ce 23 32 bd
       -0.035993088 -0.054837294 -0.04080196 -0.043491177
0001b0 b1 b7 58 bd 67 3a 46 bd 96 cf 99 3c 14 f8 09 3d
       -0.052909557 -0.04839554 0.018775743 0.03368385
0001c0 2e 51 da 3d ce ed 83 3e 38 98 f7 bc 32 c3 d1 3d
       0.10660015 0.25767368 -0.03022395 0.10242309
0001d0 46 5d 9c 3d fa b0 a3 bd 7d 85 9d bd 16 68 65 bc
       0.07634978 -0.0799274 -0.076914765 -0.014001867
0001e0 c5 1e 14 bd e6 78 ba bc a0 2c 12 3d c9 f6 9a bd
       -0.036162157 -0.022762727 0.03568709 -0.07566602
0001f0 c4 58 3e 3e 4b c1 96 bc fe ee a3 3c 66 1d b2 3d
       0.18588549 -0.018402716 0.020011421 0.086970136
000200 77 94 09 3e 62 1a 9d bb 65 b5 c2 3d 68 b5 83 bd
       0.13435541 -0.004794405 0.095072545 -0.06431085
000210 36 57 18 3d 1f df dc bd ad 5c 8c bd 17 cd 2d 3c
       0.037192546 -0.107847445 -0.06853614 0.010607979
000220 fc 1b 0b be fb 86 c3 ba 2e c1 10 be ce 18 28 3e
       -0.13584894 -0.0014917547 -0.14136192 0.16415712
000230 22 b8 3d 3d d3 e3 d7 3c 1b e7 b6 bd 3a f2 cb bd
       0.04631818 0.026353752 -0.089307986 -0.099583104
000240 8e 34 46 be 15 35 12 bd 6b ad 0a bc 1e e4 82 bd
       -0.19355986 -0.035695154 -0.008464198 -0.06391166
000250 45 05 23 3e 15 c8 47 3c f3 c2 cd bd 2f d5 1b 3e
       0.15919979 0.012193699 -0.10046949 0.15218042
000260 fe 4f 19 3e 2f 85 c6 3d f0 a3 53 bd da 27 6e bd
       0.14971921 0.096933715 -0.051670015 -0.058143474
000270 13 72 b2 bd 3e 4e 45 bc cb ba 61 3c 62 cc c1 b9
       -0.08713164 -0.01204258 0.013777445 -0.00036964106
000280 f6 01 ef 3c 10 ba b9 3d 89 d6 aa bd 4a 48 8b 3d
       0.02917574 0.09068692 -0.083417006 0.068008974
000290 60 12 df bd 46 29 88 bd 4c 76 4a bb 64 f8 3f bd
       -0.10892177 -0.06648497 -0.0030893264 -0.046867743
0002a0 90 1c 53 3d 81 b7 a3 3d db a6 99 3d e8 3d 92 3c
       0.05154091 0.07993985 0.07502528 0.017851785
0002b0 84 58 b5 3d 7f fb a9 bc 04 40 db 3c 6d d8 b8 bd
       0.08854774 -0.020749805 0.026763923 -0.09025655
0002c0 e1 46 c6 bd a0 9e 0d be 43 eb c8 3c 54 a5 cc bd
       -0.09681488 -0.13830042 0.024526244 -0.09992471
0002d0 74 63 7c bd 28 42 9e 3d 00 7c 13 3d aa 29 8c bd
       -0.061618283 0.07727462 0.036006927 -0.06843884
0002e0 a4 5d e3 3c 35 f6 a2 bd 91 23 8f bd 6e 0a da 3d
       0.027754612 -0.079571165 -0.06989206 0.106465206
0002f0 4c fd 30 be c7 92 09 3b 43 22 ee 3d 6a 8e 48 bd
       -0.17284125 0.0020992027 0.11627629 -0.04896394
000300 44 a0 70 bd 25 3f 04 be db a5 41 3d 79 5c e9 3c
       -0.05874659 -0.12914713 0.047277313 0.028486477
000310 05 12 03 3d c7 9b 61 bd cd 90 5d 3d 6f b5 44 3b
       0.031999607 -0.0550802 0.05409317 0.003001537
000320 36 9a 1f be e3 ef 91 3c ed 1b e8 bb 56 d3 53 bd
       -0.1558617 0.017814582 -0.007083407 -0.051715218
000330 da 52 a4 3b 99 81 a4 bc 87 66 84 3c e0 a2 da bd
       0.0050147595 -0.020081328 0.01616217 -0.10675597
000340 e0 77 0d bd 18 df b6 3e 04 ed 90 bd 95 94 bf bc
       -0.03453815 0.35717082 -0.07076457 -0.02338628
000350 a2 9a 15 3d f1 60 eb bc 32 50 c1 bd 2e ea 2b bd
       0.036524422 -0.028732749 -0.09439124 -0.041971378
000360 2c 38 a0 3b db b6 1f be fa b6 a8 bb 8d 5b b3 bd
       0.0048895087 -0.15597098 -0.0051487656 -0.08757696
000370 33 34 c4 3d e4 5d 33 bd 29 b4 ec 3d 05 65 7f 3c
       0.09580269 -0.043790713 0.115578 0.01558805
000380 2e 22 c5 3d 16 f1 11 bd be 6b fc 3d 79 4d 2a bd
       0.0962566 -0.035630308 0.12325238 -0.04157779
000390 8a 55 2b 3d 11 10 c6 bd ee 03 ae bd be 5f fb 3c
       0.041829623 -0.09671033 -0.08496843 0.030685302
0003a0 a8 81 cd bd 86 7a 98 bc 19 a1 15 be 9c 76 0b 3e
       -0.100344956 -0.018613111 -0.14612235 0.13619465
0003b0 4d 19 9e 3c 03 1a 10 3c ce 3c 3c bd d5 45 88 bd
       0.019299174 0.008795264 -0.045956425 -0.066539444
0003c0 4d 68 1c be 3e fa 8a bd c0 cc 39 bc da fe 6e bd
       -0.15274163 -0.06786011 -0.01134032 -0.058348514
0003d0 4d 3d 14 3e b1 08 48 3c 00 ec 04 be da 91 34 3e
       0.1447651 0.012209103 -0.12980652 0.17633763
0003e0 fa 43 ec 3d 1b 6f 04 3e d2 16 99 bc 35 c0 78 bd
       0.11536403 0.12933008 -0.01868764 -0.060730178
0003f0 af 54 8c bd 7b 0c f7 39 d6 00 0f bd 46 18 14 3c
       -0.068520896 0.0004712081 -0.034912907 0.00903899

context_transformer_0/kq_shared_bottleneck/norm/mul;context_transformer_0/kq_shared_bottleneck/norm/add;context_transformer_0/attention/query/einsum/Einsum;context_transformer_0/attention/query/add;context_transformer_0/attention/value/einsum/Einsum;context_transformer_0/attention/query/add/ReadVariableOp/resource;context_transformer_0/attention/Mul;context_transformer_0/attention/Mul/y f4 [32]
000000 67 ad a1 bb 0c 76 fb bb 40 16 da 3c 68 8b 8d bc
       -0.0049340012 -0.0076739844 0.026621938 -0.017278388
000010 1d 36 b3 3d 5d 78 8d 3c bd 04 3b 3b 31 86 8c 3d
       0.08750556 0.017269308 0.002853676 0.068615325
000020 81 37 a6 3d f1 0a cd bd f5 b2 f5 bd c7 03 cc bd
       0.08116055 -0.100118525 -0.11997024 -0.09961658
000030 a4 a0 c6 bd b9 57 c6 3d 0e 27 b7 3d 77 81 96 bd
       -0.096986085 0.096847005 0.08942996 -0.07348912
000040 de b1 47 bc f5 c0 08 3e 9e a8 04 3e 3e 16 0a be
       -0.012188403 0.13354857 0.12954947 -0.13485047
000050 83 c4 db 3c 77 df 84 3d 96 85 05 be 58 a2 bf 3d
       0.026827103 0.06487935 -0.1303924 0.093571365
000060 72 63 13 be 5b 99 01 3e d5 52 04 3e f7 e7 12 bd
       -0.14393404 0.12656157 0.12922223 -0.03586575
000070 ed 18 09 3e 2b 1d a9 3d ed d5 5a 3b f0 8a ea bd
       0.13388415 0.082575165 0.003339167 -0.114522815

context_transformer_0/kq_shared_bottleneck/norm/mul;context_transformer_0/kq_shared_bottleneck/norm/add;context_transformer_0/attention/query/einsum/Einsum;context_transformer_0/attention/query/add;context_transformer_0/attention/value/einsum/Einsum;context_transformer_0/attention/query/add/ReadVariableOp/resource;context_transformer_0/attention/Mul;context_transformer_0/attention/Mul/y1 f4 [32, 32]
000000 e1 a7 2d bd ee bb 0f bd 3b d7 19 bd 10 39 a8 3c
       -0.04239643 -0.035091333 -0.037558775 0.020535022
000010 f0 58 80 3c e7 e5 9c 3c 98 f1 04 3c 25 d1 bc 3b
       0.015667409 0.019152595 0.008114241 0.0057622367
000020 4f a3 dd bc 83 f5 ec 3c 46 78 05 3d 0c 24 2a bd
       -0.02705541 0.028925663 0.032585405 -0.041538283
000030 fb b1 0f 3c cd 25 46 ba 4b 42 86 bd 4f cc c5 bb
       0.008770461 -0.00075587333 -0.06555613 -0.0060363184
000040 f6 c2 35 bd fd 56 58 3d 85 1e 37 bc c8 28 70 bb
       -0.044375382 0.052817333 -0.01117671 -0.0036645401
000050 d3 f4 d2 37 aa d3 f6 3b 51 db a1 3c 7e 13 3d bd
       2.5147956e-05 0.0075325565 0.019757899 -0.046161167
000060 02 17 06 bd 5b f8 41 bd f3 60 33 bc 3a ef 36 bd
       -0.032736786 -0.04735599 -0.010948407 -0.044661738
000070 6d cc 11 3c 91 ea 3e bd 7f 95 ec bc e7 85 f7 bb
       0.008898837 -0.04661042 -0.028879879 -0.007553804
000080 83 8b 1c 3d ca c6 06 3d 20 09 9e 3c 0f 9a 24 bd
       0.038218986 0.032904424 0.01929146 -0.040185984
000090 7f bb 2e bb 36 10 30 bc f6 4a 88 bb 7e 6c c1 3b
       -0.002666205 -0.0107460525 -0.0041593267 0.005902826
0000a0 4c ae f2 3c dc fa 25 bd d6 f9 df bc b4 30 52 3d
       0.029624127 -0.04052244 -0.02734081 0.05131598
0000b0 9e dc a5 bc 2b 6d 17 3d f6 0b 37 3d 5b 26 5b 3c
       -0.0202468 0.036969345 0.04468914 0.013375844
0000c0 fd 4b 27 3d be fd 64 bd 29 63 ad 3c 3d 32 03 3c
       0.040843952 -0.05590605 0.021165447 0.008007583
0000d0 b4 f3 fb 3c ec b6 46 3a 40 fc dd bc e6 ab 3e 3d
       0.030755855 0.0007580358 -0.027097821 0.046550654
0000e0 b4 5c 45 3d 42 83 07 3d c9 c8 ae 3c bc 64 08 3d
       0.04818411 0.03308416 0.021335976 0.033299193
0000f0 0f bd ba 3b 12 e0 0b 3d 9c b2 aa 3c 1d 41 95 3c
       0.005698807 0.034149237 0.02083712 0.018219525
000100 2f b0 41 bd 88 eb 63 bc 3e 62 4c 3c 72 37 4b 3d
       -0.047287162 -0.0139111355 0.012474595 0.049613424
000110 14 10 fe 3a 17 af 47 bc 05 c3 0f bc 99 72 cf bc
       0.0019383454 -0.012187741 -0.008774524 -0.0253232
000120 2f 00 22 bc 61 67 4b 3d 95 27 99 bc 07 17 81 bd
       -0.009887739 0.049659137 -0.018695632 -0.0630322
000130 19 70 2b 3d 18 47 70 bd 8d f5 dd bc b7 5f d0 39
       0.04185495 -0.05866155 -0.027094627 0.00039744165
000140 01 08 48 bc b3 85 26 3d 9a bc 2b bd 96 c1 05 bc
       -0.0122089395 0.04065485 -0.04192791 -0.00816383
000150 ba b8 42 bd e4 37 a3 bc 55 69 2b 3d de 03 93 bc
       -0.04753945 -0.019924112 0.0418485 -0.01794618
000160 8c 16 61 bd 38 c8 d1 bc d7 7a 1d bd ba 49 3d bc
       -0.054953143 -0.025608167 -0.038447227 -0.011553222
000170 3b 01 de bb 3c 9e ab bc 49 fd 72 3b a5 b7 90 3c
       -0.006775049 -0.020949475 0.003707724 0.017665694
000180 5c b2 f4 3c fe df d6 3c 63 67 a8 3c 2f 7b 08 bd
       0.029870205 0.026229855 0.020557111 -0.033320602
000190 1c 92 72 bb b6 80 92 bb b8 cf 82 3b 57 d2 4d 3b
       -0.0037013358 -0.00447091 0.003992047 0.003140589
0001a0 f8 d1 be 3c ec be 2f bd 0d ea 9a bb 49 8d 55 3d
       0.02329348 -0.042906687 -0.004727608 0.052136693
0001b0 8c 9e b8 bc 68 f0 94 3c 31 b5 6c 3d 5b c7 c5 3b
       -0.022536539 0.01818104 0.057789985 0.006035728
0001c0 3e 6b b8 3c 0e 09 32 bd fc 25 bd 3c 1d ec 8d ba
       0.022512075 -0.043465666 0.023089401 -0.0010827814
0001d0 70 09 de 3c ad 94 22 3c 14 76 87 bc 4f 84 39 3d
       0.02710411 0.009923142 -0.016535796 0.045292195
0001e0 5c 24 ed 3c 43 88 07 3d 7b 60 e3 3c 59 a4 2d 3d
       0.028948002 0.033088934 0.027755966 0.042393062
0001f0 0f 60 57 ba b0 09 ec 3c 4b c8 f5 3c c8 4c e8 3a
       -0.0008215913 0.028813213 0.030002734 0.0017723078
000200 48 68 04 3b ea d8 b8 3c 96 de 86 bc d4 19 ca 3a
       0.0020203758 0.02256437 -0.01646356 0.0015419074
000210 66 3c 2e bd 34 04 33 bd dd 30 90 bc 2b bc 51 bc
       -0.04253807 -0.04370518 -0.017601425 -0.01280121
000220 66 eb f9 bc 05 d2 d5 3c 53 94 bb 3c e1 45 54 3c
       -0.030507755 0.026101122 0.022897875 0.012956114
000230 b7 19 f7 3c 1c 00 6b 3b 51 41 7b bc ef 6b b9 bd
       0.030163629 0.003585822 -0.015335397 -0.0905379
000240 27 7f 31 bd 34 6e 1d 3d ad 6f 27 3b 47 a6 42 bd
       -0.043334153 0.038435176 0.0025548742 -0.047521856
000250 b3 80 89 3b 78 07 1f 3c c8 c7 cd bb d0 a3 86 bd
       0.0041962503 0.0097063705 -0.0062799193 -0.065742135
000260 8c 32 4d 3c 0c d4 95 bd 98 3d a9 bc ee 7e c8 bc
       0.012524258 -0.07315835 -0.020659253 -0.024474587
000270 39 46 bd bc 82 0b 91 3c d1 11 e4 3d db 53 0d bd
       -0.023104774 0.017705683 0.11136211 -0.0345038
000280 b9 9e 49 bd c4 44 05 bd 8b 2d 83 3c 2b 39 02 3d
       -0.049223635 -0.032536283 0.016012928 0.0317928
000290 08 bb fb 3b 8c e5 15 bc e8 94 3f bc d3 ca 79 bc
       0.007682208 -0.0091489665 -0.011693217 -0.015246111
0002a0 e1 33 b2 bc 20 7c 3c 3d 65 1d 89 bc 0f 93 86 bd
       -0.021753253 0.046016812 -0.01673765 -0.06571018
0002b0 ed bc da 3c 72 c7 c2 bc 57 69 db bb 70 04 81 3c
       0.026701415 -0.023776744 -0.006695907 0.015749186
0002c0 cd 59 a7 3b 7f 92 e9 3c 0b ab f8 bc 35 8c 28 bc
       0.0051071406 0.028512238 -0.030354997 -0.010287334
0002d0 4b d8 eb bc 6d 93 35 bc a4 75 be 3c ed 31 0b bb
       -0.02878966 -0.011082512 0.023249455 -0.0021239475
0002e0 38 2e 19 bd b9 8a 30 3b 9c 53 07 bd 8b 2a da ba
       -0.037397593 0.0026938154 -0.03303872 -0.0016644759
0002f0 99 92 cf 3b 0c c8 9d bc e0 ce 2d bc 3c 8b 0a 3d
       0.0063346145 -0.019260429 -0.010608405 0.03382419
000300 0b 10 8a 3c 8b c4 17 3d c1 9d 0a 3d f7 b6 aa bb
       0.016853353 0.037052672 0.033841852 -0.0052097994
000310 e3 3b 6f bc 5b 71 97 bc 54 f2 99 bc 68 42 b1 3b
       -0.01460168 -0.01848667 -0.018792309 0.0054095276
000320 f5 b6 d2 3c 64 f3 05 bd 2c 07 18 bd 96 57 2c 3d
       0.025722006 -0.03270282 -0.037116215 0.042075716
000330 f0 25 30 b9 65 d3 20 bc 96 7e 8f 3d bb 03 18 bc
       -0.00016798801 -0.009816025 0.07006566 -0.009278233
000340 bc 2f 0c 3d fe 62 a6 bd bb 99 3f bb 05 93 a0 ba
       0.03422521 -0.0812435 -0.0029235918 -0.0012250846
000350 08 bc 32 bc 77 5d 25 bc ec 3f 25 3c 4a 15 70 3d
       -0.010909088 -0.010093085 0.010086041 0.058614053
000360 5f 52 07 3c 82 f9 83 3d 3d 41 26 3c ea 91 40 3d
       0.008259385 0.06444074 0.01014739 0.047014154
000370 a9 e9 98 bc 4b 4c 3f 3d 0b 11 2c 3d df 57 41 ba
       -0.018666105 0.046703618 0.04200844 -0.00073754595
000380 88 3f 2e 3c e6 d3 95 3c 5a 07 db bc 6d 0d 82 3b
       0.010635264 0.018289518 -0.026736904 0.0039688856
000390 00 a8 37 bd 05 b3 b1 bc 9b 2d 0f bc d8 20 5a 39
       -0.04483795 -0.021691808 -0.008738901 0.00020802335
0003a0 a0 8d 02 bd 8d b0 80 3c fa 8b 1b 3d 7a 44 9b 3c
       -0.031873345 0.015709186 0.03797529 0.01895355
0003b0 89 ba b7 3c eb 23 07 b7 93 da 7f bc d5 40 92 bd
       0.022427814 -8.05499e-06 -0.015616077 -0.07141272
0003c0 dc 8d 54 bd c4 e1 46 3d 95 31 af 3a 1a 60 2f bd
       -0.0518931 0.04855515 0.0013366217 -0.04281626
0003d0 19 ff 88 3c fd f0 c2 3c da 92 2d bc a1 53 99 bd
       0.016723203 0.023796553 -0.010594094 -0.07486654
0003e0 8c 88 28 3c fb 01 94 bd 39 63 12 bc 18 c7 06 bd
       0.010286462 -0.0722694 -0.008934789 -0.032904714
0003f0 d0 b7 16 bd e1 38 88 3b 5a d5 da 3d 48 b3 4e bd
       -0.03679639 0.004157171 0.10685225 -0.050463945

context_transformer_0/ffn_layer_0/intermediate_dense/einsum/Einsum;context_transformer_0/ffn_layer_0/intermediate_dense/Relu;context_transformer_0/ffn_layer_0/intermediate_dense/add f4 [32]
000000 ab 9b cc be 24 fa 60 be e5 f6 c1 be 3b fe 82 be
       -0.39962515 -0.21970421 -0.37883678 -0.25584587
000010 08 6f b3 be 42 55 9b be 84 74 c9 bd bd f4 a0 be
       -0.35045648 -0.30338484 -0.09836677 -0.3143672
000020 d1 23 05 bf ed db 42 be 63 09 87 be 1c c4 a9 be
       -0.52007776 -0.19029208 -0.2637435 -0.33157432
000030 0b 2b 84 be 69 dc 04 bf 87 d8 86 be f7 c4 f9 bd
       -0.2581409 -0.5189882 -0.26337072 -0.12195771
000040 ed 0b c2 be ca 52 0d bf 65 f8 e5 be 61 4d 8c be
       -0.37899724 -0.5520445 -0.44916072 -0.27402785
000050 a0 4c 2f be d9 6b f0 be ee 75 3d bf 8a 41 aa be
       -0.17119074 -0.4695728 -0.7400807 -0.33253127
000060 55 45 f5 bd f5 09 e8 be 0a f7 a5 be 95 c4 d7 be
       -0.11976115 -0.45320097 -0.32415038 -0.42142168
000070 6d b9 c2 be bd b1 4a be 41 21 61 be ca 6b 5c be
       -0.38032094 -0.19794364 -0.21985342 -0.21525493

context_transformer_0/attention/norm/mul;context_transformer_0/attention/norm/add;context_transformer_0/ffn_layer_0/intermediate_dense/einsum/Einsum;context_transformer_0/ffn_layer_0/intermediate_dense/Relu;context_transformer_0/ffn_layer_0/intermediate_dense/add f4 [32, 32]
000000 63 bc be 3c f9 dd 0b bd 95 78 51 3d b2 78 54 be
       0.02328319 -0.034147236 0.051140387 -0.20749167
000010 0b d6 21 3e 46 98 8f 3e 69 da 08 bf c1 a5 91 3e
       0.15804307 0.28045863 -0.5345827 0.28446773
000020 a7 22 c4 be d5 6d 95 bc 00 01 ba 3c 9f a4 77 3d
       -0.38307688 -0.018240849 0.022705555 0.06045973
000030 8d 0a 2b be 61 c8 19 3e 46 a7 80 3d a7 1f 17 3c
       -0.16703244 0.15017845 0.06281905 0.009223855
000040 5b 2a 78 be f4 4d 92 3e 6a 71 25 3b a4 ce d9 3d
       -0.24234907 0.285751 0.0025244602 0.10635117
000050 f8 fd bb 3d 84 8d 18 3e c3 64 ec be 9d 60 ac bd
       0.091793 0.14897734 -0.46170625 -0.08416865
000060 9d 71 3d 3d 65 57 03 bf 1c 95 47 be 7e 91 d6 bd
       0.04625093 -0.5130523 -0.19490474 -0.10476969
000070 69 71 dd bc a3 53 fb bd c1 1b 59 3c 8f 3b 5a be
       -0.027031617 -0.12271812 0.013251246 -0.21311782
000080 93 0c a8 bd 34 80 4d 3d 57 1e 2f bd b2 c7 79 bc
       -0.08205523 0.050171092 -0.042753544 -0.015245365
000090 ce 7d 13 bd 1e 5a 87 bd f3 c5 00 be 28 4a b7 3d
       -0.03600865 -0.06608985 -0.12575512 0.08949691
0000a0 b4 e8 81 bd 67 22 bc bd 1c 88 7b 3d 82 9e 00 3e
       -0.06343213 -0.09186249 0.0614091 0.12560466
0000b0 6d 7f 9e bd 9b a2 82 3e 39 81 e5 bc 99 98 81 3d
       -0.07739148 0.25514683 -0.02801572 0.06327934
0000c0 ba 93 fa 3c e9 0f 03 3d a2 94 94 bc 76 25 58 3d
       0.03058802 0.031997595 -0.01813728 0.0527701
0000d0 a9 70 f4 3b 05 a1 73 3d 04 71 58 3c bf 54 99 bc
       0.007459719 0.059479732 0.013210539 -0.018717168
0000e0 91 e2 9a 3c 8f 59 8d bc a7 88 69 3d 16 85 88 bd
       0.018906863 -0.017254619 0.057015087 -0.06666009
0000f0 89 21 a4 3c d4 f5 0f be e6 46 01 3d 98 8e 97 bc
       0.020035522 -0.1405862 0.031561755 -0.018500611
000100 6b 30 5f be 5b e5 3e 3c 5c 49 39 bd 50 b2 81 bd
       -0.21795814 0.011651362 -0.045235977 -0.063328385
000110 22 7c 38 3d b8 c6 22 be 88 6c af 3d 4b 3a 72 bd
       0.045040257 -0.15896118 0.085656226 -0.059137624
000120 88 c4 7c be 96 2c 2e be 0d 08 4a bd 78 d5 25 3e
       -0.24684346 -0.17009196 -0.049324084 0.16194713
000130 24 b8 47 be 37 00 3b 3d 24 2f 1f be 41 af a6 bc
       -0.19503838 0.0456545 -0.15545326 -0.02034724
000140 72 14 85 3d 61 a0 94 bd 50 11 d3 bd d1 f0 c5 3d
       0.0649804 -0.07257152 -0.103060365 0.09665073
000150 a0 c2 4d be e1 25 2c 3e 04 ba 6d bd 6d 44 12 bd
       -0.20093775 0.16811325 -0.058038726 -0.035709787
000160 65 25 2f 3d 5a 9f 9d bb 25 6e 08 3e 38 58 46 be
       0.04276027 -0.004810256 0.13323267 -0.1936959
000170 ce 3e cd 3d 37 8a e3 bd 36 c6 ac 3c ce dc 1c be
       0.10021745 -0.11110347 0.021090608 -0.15318605
000180 ff fd 97 3c a7 39 91 3d cd 5e 34 3e db 6e 81 3d
       0.018553732 0.070910744 0.17614289 0.06319972
000190 da 3e e9 3d ba f4 9c bd da 9f 88 3e 7c fd 47 bd
       0.11388941 -0.076638654 0.26684457 -0.048825726
0001a0 bc 6a a6 bd 2f 1e 91 bd 32 78 a8 bd 33 51 89 bd
       -0.08125827 -0.07085835 -0.082260504 -0.06704941
0001b0 0d d4 9f 3d 99 ce 7d bd aa 1e 07 be 73 1a 62 3d
       0.07804117 -0.061964605 -0.13195291 0.055201005
0001c0 6d b6 2c be 96 76 91 bd 97 84 5d be 3b fc 58 3e
       -0.16866465 -0.071026966 -0.2163261 0.21189968
0001d0 f1 e1 89 bd 45 ef f6 bc 99 bc 08 be 52 09 85 bd
       -0.06732548 -0.03014339 -0.13353194 -0.06495918
0001e0 dd 6d b3 3c 11 59 d9 bd 7f f3 f1 bd b0 dc 55 3c
       0.021902973 -0.10612691 -0.11814021 0.013053104
0001f0 e8 69 66 3e 27 9a 5f 3b 50 d4 8d 3d aa 38 9e bd
       0.22501338 0.0034118982 0.06925261 -0.077256516
000200 39 ca f5 bd 2e 5a 09 be 37 d6 f8 bd d1 5f 04 3e
       -0.120014615 -0.13413307 -0.12150233 0.12927176
000210 7d f9 7e 3e 14 19 8e 3d d6 fb d0 3e 2b df d2 3e
       0.2489986 0.06938377 0.40817136 0.4118589
000220 b2 85 4a be e9 78 99 be 1d a1 5a bd 85 9d 00 be
       -0.19777563 -0.2997506 -0.053376306 -0.12560089
000230 de 0d c8 bd 8d f3 41 3a bb 40 27 be 60 27 9f bc
       -0.0976827 0.00073986576 -0.16333286 -0.019427955
000240 39 85 a1 be d1 09 7f 3c 09 c1 19 3e 7d 73 6d be
       -0.31546953 0.015566305 0.15015043 -0.23188587
000250 12 81 8e 3e c9 87 8a 3e f9 fd 59 be 58 4c ab bd
       0.27832848 0.2705672 -0.21288289 -0.08364171
000260 85 6c 32 bd 30 89 05 3d 6b 14 16 be 64 71 a6 3a
       -0.043560524 0.032601535 -0.14656226 0.0012698588
000270 9c 94 98 bd 79 ce 4d 3d 57 8a e5 3d b9 ea 39 be
       -0.0745022 0.050245736 0.11208027 -0.18155946
000280 cb 68 bd bc 4d 97 28 3e e2 3f 3a 3e db 26 29 be
       -0.023121258 0.16463967 0.18188432 -0.16518728
000290 38 a8 ef 3c ce 94 18 3d a2 95 39 3d 92 48 87 3e
       0.029255018 0.037251286 0.045308717 0.26422554
0002a0 88 82 cd be c4 53 f1 be 4f 72 b9 be de 75 e5 bd
       -0.4013865 -0.4713422 -0.36220023 -0.11204122
0002b0 f9 e5 b1 3d 1a 7d fe 3d ca 98 58 3e 2c f2 73 3d
       0.08686442 0.12426205 0.21152034 0.059557125
0002c0 20 96 2e bd 21 b9 e0 bc 16 af da bd b6 7c d8 3d
       -0.04262364 -0.027432026 -0.10677926 0.10570662
0002d0 04 29 95 bc f6 0e 93 3d f0 c0 7c be c1 4f ed bd
       -0.018208034 0.07180588 -0.24682975 -0.115874775
0002e0 af 31 c8 3d f3 9a dd be e1 b6 38 be 3b ad ef bd
       0.097751014 -0.4328228 -0.18038513 -0.11702963
0002f0 05 ef e9 3c ba fa b9 bd 69 20 fd bd 69 61 0d bf
       0.028556356 -0.090810254 -0.12359697 -0.5522676
000300 9d 49 80 3e b9 63 3a bd d0 16 5b bd 5b 5b 8d be
       0.25056162 -0.04550526 -0.053488553 -0.2760876
000310 30 fd 02 be cb 44 23 3e 32 cc 98 3d 69 7b 10 3e
       -0.12791896 0.15944211 0.07460822 0.14109577
000320 67 d6 e1 bd f2 15 9b bd 3c 6c 54 3c da 62 a0 3d
       -0.11027222 -0.07572545 0.012965258 0.078313544
000330 ee eb 1d 3e 6a 03 f5 3d 9d b6 33 be 6b 82 9f 3d
       0.15422031 0.11963542 -0.1755013 0.07788547
000340 18 eb eb 3d a1 fa 63 3d 94 ae 17 3e bb aa 1f be
       0.1151945 0.05565894 0.1481269 -0.15592472
000350 33 53 b7 3d 12 49 f1 3d 07 3f 0e 3d 1e eb 06 3e
       0.08951416 0.11781515 0.034728076 0.13175628
000360 cd 4f 24 be d0 ee 06 bd 85 d8 08 3e be b3 0d be
       -0.16046067 -0.032942593 0.13363846 -0.13838097
000370 ea a6 11 be dc e0 42 be 47 ae 34 be 22 a8 a1 bd
       -0.14223829 -0.1903109 -0.17644607 -0.07893397
000380 9d 35 15 3e 42 b4 93 3d d3 77 37 3d 6c 85 88 bd
       0.14571233 0.07212116 0.044792008 -0.06666073
000390 c8 68 90 3d 21 ad 95 bd cd 89 70 3e 07 85 b6 3c
       0.070512354 -0.07308412 0.23490067 0.02228023
0003a0 c3 be 77 be cf 73 5a be ec b8 1f be 78 89 5e 3e
       -0.24193864 -0.2133324 -0.15597886 0.21732128
0003b0 59 d7 f7 bc e9 cf e2 3d a6 d7 75 bd 50 81 0c be
       -0.030254053 0.11074812 -0.06002011 -0.13721204
0003c0 80 ab 3e 3e c1 08 27 be 46 a4 4b bd 4b 80 34 3e
       0.1862011 -0.16311933 -0.04971721 0.17627065
0003d0 d5 b0 21 be 63 59 9a 3d 3d f2 22 be c8 6b 63 3b
       -0.15790112 0.075365804 -0.15912719 0.0034701694
0003e0 74 b0 14 3e 6e 5d f6 3d b2 1e 97 3e 1f 29 0b be
       0.14520437 0.12029539 0.29515606 -0.13589905
0003f0 2d 21 b4 3d ca ed bb 3c f2 e8 5f bd 92 b8 4d be
       0.0879539 0.022940535 -0.054665513 -0.20089939

context_transformer_0/ffn_layer_1/intermediate_dense/einsum/Einsum;context_transformer_0/ffn_layer_1/intermediate_dense/Relu;context_transformer_0/ffn_layer_1/intermediate_dense/add f4 [32]
000000 d1 dd 00 be 60 5b 34 3d d6 47 d9 bc 79 17 cb bd
       -0.12584616 0.044032454 -0.026523512 -0.099165864
000010 cf b7 00 bf 11 2f b8 be 03 ff a0 be 6e fc 9a be
       -0.5028047 -0.3597341 -0.31444559 -0.30270714
000020 f1 89 ef bd 23 ca 2f be 91 4b 91 be 9a 3e 94 be
       -0.11696232 -0.17166953 -0.28377965 -0.2895401
000030 87 a3 2e be 47 46 6d be fc 66 ed ba 12 c2 bc be
       -0.17054568 -0.2317134 -0.0018112357 -0.36866814
000040 d5 50 a2 bb ee 44 04 bf 4e c4 9c be 68 9d 95 be
       -0.0049534836 -0.5166768 -0.3061852 -0.29221654
000050 2e d7 3e be 54 ae f3 bd 2e a4 9c be 48 31 40 bd
       -0.18636772 -0.11898485 -0.3059401 -0.046922
000060 1c dd ec bd 7c ee b8 bd fa a9 10 bf b7 3b 19 be
       -0.11565611 -0.09029862 -0.56509364 -0.14964186
000070 45 67 12 be 33 79 f4 bd 7f 32 44 be e1 a0 32 bc
       -0.14297207 -0.119371794 -0.19159888 -0.010902614

context_transformer_0/ffn_layer_0/norm/mul;context_transformer_0/ffn_layer_0/norm/add;context_transformer_0/ffn_layer_1/intermediate_dense/einsum/Einsum;context_transformer_0/ffn_layer_1/intermediate_dense/Relu;context_transformer_0/ffn_layer_1/intermediate_dense/add f4 [32, 32]
000000 ed cd 56 bd 6d 56 c3 be cf f5 73 3e d5 fb cb 3d
       -0.05244248 -0.38151875 0.23824237 0.099601425
000010 a1 99 20 3d 46 d6 dc 3d b3 b0 0e bf e2 3d 78 bd
       0.039209012 0.10783057 -0.5573837 -0.06060589
000020 bf 53 96 3d bc 93 30 be 5b 8e 84 3d ce 71 52 be
       0.07340192 -0.17243856 0.06472465 -0.20551226
000030 19 8d 05 bd 6f 7f 96 bc c5 fb f0 bd 46 58 c9 bd
       -0.032605264 -0.018371312 -0.11766771 -0.0983129
000040 70 62 59 be 8c 6c fe 3d 2d 27 00 be fb bf 9b bd
       -0.21228957 0.124230474 -0.12514944 -0.07604977
000050 df 7d 99 bd 31 95 54 be 81 fd 90 bd 9a b8 05 3e
       -0.07494711 -0.20760037 -0.07079602 0.13058701
000060 55 8d 65 3d 0a ae ba bd 0a 42 ff bd 8b 0d 28 be
       0.056042988 -0.091152266 -0.12463768 -0.16411416
000070 31 78 8e be 7b 07 f3 3c 4a 9f 74 bd e7 66 5b 3d
       -0.27826074 0.029666653 -0.059722222 0.053564932
000080 cf 0e cc 3d 89 0d 22 be c2 26 a5 be 33 20 b2 bd
       0.09963762 -0.15825476 -0.32256132 -0.08697548
000090 d8 72 95 bd cf c7 fa bd 1b e6 3f be d4 d2 32 be
       -0.07297295 -0.12245142 -0.18740122 -0.17463237
0000a0 1d 89 9e bd d4 04 c0 3d 14 c0 49 3e a4 85 8f 3d
       -0.07740996 0.09375921 0.19702178 0.07007912
0000b0 61 57 6a be b9 dd 0b 3d 2c 3d 01 bd d2 af 88 3d
       -0.22884895 0.034146998 -0.03155248 0.0667416
0000c0 54 a1 21 3e ef b6 97 bd fa 72 c4 3d ef 09 b0 be
       0.15784198 -0.07407939 0.095922425 -0.3438258
0000d0 ea 9d d1 3d 43 7d 29 be 81 0c 55 3e 8c 36 5a 3e
       0.10235198 -0.1655169 0.20805551 0.2130987
0000e0 28 7a 2d be a6 72 8e 3d 7f 72 fd 3c bd c1 30 3d
       -0.1694113 0.06955461 0.030938385 0.043153513
0000f0 3d ac 18 be 3d fa f6 bc 97 04 b6 bc 34 6a 92 bd
       -0.14909454 -0.03014862 -0.022218985 -0.07149163
000100 85 5c 0f be fe 4e 39 bf fb cc 40 be 8b 94 a5 be
       -0.14000137 -0.7238616 -0.18828194 -0.32339892
000110 1b c0 18 3e 5a 66 94 3d fb f6 28 be d4 f5 89 bc
       0.14917032 0.072460845 -0.16500466 -0.016840853
000120 1d f6 aa be 4d a5 a1 3d 66 11 fc 3d 22 30 6b 3b
       -0.33390895 0.07892857 0.12308006 0.0035886844
000130 2f 9b c5 be 42 36 7d bd 64 e1 28 3d a4 09 8b 3b
       -0.38594958 -0.061819322 0.041230574 0.0042430926
000140 b5 5e 97 3d 07 16 2a be c0 7f bd 3c 02 5d 81 be
       0.07391111 -0.16609965 0.023132205 -0.25266272
000150 3a 01 7a 3e 9f 65 a0 3e 80 69 24 bd f7 63 a1 bd
       0.2441453 0.3132753 -0.040139675 -0.07880395
000160 17 db f0 bb b8 3d d2 3d 5e af 31 bd 53 a0 9a bd
       -0.0073503363 0.10265678 -0.043380134 -0.07550111
000170 48 32 c3 bd 30 b4 b3 3d 13 20 86 3c 27 26 0c be
       -0.09531075 0.087746024 0.016372716 -0.13686429
000180 58 e6 07 3c 8c e8 ef bc 19 7c 2c 3c e3 27 bf bc
       0.008294664 -0.029285692 0.010527634 -0.02333445
000190 8d f7 ab 3c 0e 95 05 3a bc c9 97 bc 5c f1 c2 3b
       0.020992065 0.0005095758 -0.018528812 0.0059491824
0001a0 da c5 8c bd 71 86 a6 bc b5 4f 0a bc ad 78 80 bc
       -0.06873675 -0.020327779 -0.008441855 -0.015682543
0001b0 a0 b9 7e 39 1a 1f 3b bc 5c 35 df 3c 2e e6 16 bc
       0.00024292478 -0.011420989 0.027247123 -0.009210153
0001c0 29 82 78 bc b4 23 8e bc 4a b5 40 3c 4e 25 50 bc
       -0.015167751 -0.017351009 0.011761973 -0.012704207
0001d0 e0 34 a3 3c e3 c5 35 bc 12 4f 83 bb 33 ab 3d 3c
       0.019922674 -0.011094543 -0.0040072287 0.011576462
0001e0 77 a6 8e bc 24 cb e7 bc 19 58 50 3d 7f 13 19 bc
       -0.017413361 -0.028295107 0.050865266 -0.009343027
0001f0 1a 64 ac 3c cf c7 91 bc a8 e5 77 3b d4 54 a8 bc
       0.021043826 -0.017795471 0.0037826095 -0.020548262
000200 44 63 64 be 95 65 14 be df 4e 91 ba 4a 65 db 3c
       -0.22303492 -0.14491875 -0.0011086127 0.026781697
000210 96 f1 25 3e 2c 15 b7 bd 36 71 d3 3d d9 a6 25 be
       0.16205439 -0.08939585 0.10324328 -0.16176929
000220 9b 35 e7 bd 27 5f 25 3d c7 c4 52 be f9 6a 3c be
       -0.11289521 0.040373947 -0.20582877 -0.18400182
000230 64 a4 84 3d 0f 8e a3 bd e8 c9 23 3e 95 ce 71 be
       0.064766675 -0.0798608 0.1599499 -0.23613961
000240 b1 df d9 bd b4 2a 1f bd 58 24 8c be ba 7d 46 3d
       -0.10638369 -0.038859084 -0.27371478 0.048459746
000250 60 ee 8d 3d 5e d6 40 be 17 f8 14 3e 2d 9e a2 3d
       0.06930232 -0.18831775 0.14547764 0.07940326
000260 c9 bc 6d bc c7 07 a0 bc f9 5f 1b be b3 95 b2 3d
       -0.014510342 -0.019534959 -0.1517333 0.08719959
000270 e8 57 95 3c 62 68 a4 3e 7b f1 18 3e 9d 70 e3 bd
       0.018230394 0.32110888 0.14935867 -0.11105464
000280 23 46 5f be 76 7d 9d be 2c c4 a7 bd 00 4d 8f 3c
       -0.21804099 -0.30759782 -0.08191714 0.017492771
000290 9e f9 cb 3d 0f 40 28 3c c6 c1 d6 be 92 04 3a bc
       0.0995972 0.010269179 -0.41944712 -0.011353629
0002a0 49 ac c6 3c 67 bb ab be 45 35 80 3e 28 ce 1e be
       0.024252074 -0.33541414 0.2504064 -0.1550833
0002b0 82 32 e5 bd 61 53 04 3d 1a 8f a3 bc ac 32 ad bc
       -0.11191274 0.03230608 -0.019965697 -0.021142326
0002c0 f6 0a 27 be 12 3d 37 3e 8e 1d ce bd d9 5a b0 be
       -0.16312775 0.1789439 -0.10064231 -0.3444431
0002d0 de e9 77 bd b5 37 67 be fa 63 d7 3c 4e fd 58 3e
       -0.060525768 -0.22579844 0.02629279 0.21190378
0002e0 c2 de 08 3d 76 43 dd 3b f8 4e e2 3b 6f fc ba 3c
       0.033415563 0.0067524267 0.0069063865 0.022825448
0002f0 e1 7f 84 be ba 1b 54 bd b1 48 31 3e d5 e3 06 3d
       -0.25878814 -0.051784255 0.17312886 0.03293212
000300 8f 98 91 be b8 1d 17 bd 81 83 91 3b a9 bb bf bd
       -0.28436705 -0.036893576 0.0044407253 -0.09361965
000310 f2 0e 9f 3c c9 b1 6e bd 45 08 72 3c 70 94 6d bd
       0.019416306 -0.058275018 0.014772479 -0.05800289
000320 5b 66 75 bd 5e 30 9d be 6d a7 da bd 65 11 fd bd
       -0.059912067 -0.30700964 -0.10676465 -0.12356833
000330 44 c1 b3 3c 10 e6 11 3e 68 03 d4 3d e6 ce d7 bd
       0.021942742 0.14247918 0.10352212 -0.105375096
000340 f1 82 a9 3c 32 45 15 be a7 72 b6 bc e4 7a 48 3d
       0.02069232 -0.14577177 -0.022271467 0.048945323
000350 5f 49 55 3d 8c e5 36 be 5c 7c 77 3e 13 e1 58 3e
       0.052071925 -0.17861003 0.24168533 0.21179609
000360 62 d3 00 be 84 51 0b be 62 2e e0 bd 56 d4 66 3c
       -0.12580636 -0.13605314 -0.10946347 0.014088711
000370 a4 9b ee bc 70 79 1a 3e 2e 26 c8 bd 18 a1 78 be
       -0.02912695 0.15085387 -0.09772907 -0.24280202
000380 8e f6 06 3e 06 fb 62 3d 25 72 c0 bd e1 bd 82 3d
       0.1317999 0.055415176 -0.09396771 0.06383873
000390 79 b5 3a bb 84 ca 34 3e 58 5f b2 be 4a 1d 07 be
       -0.0028489514 0.17655379 -0.34838367 -0.13194767
0003a0 d6 7b 76 be e2 be 0e bc fa e1 48 3e 86 84 c9 3c
       -0.24070677 -0.008712502 0.19617453 0.024599325
0003b0 b0 5a 84 bd 56 23 95 bc 15 a8 a5 bc 28 9d 22 3d
       -0.0646261 -0.018205326 -0.02022175 0.039700657
0003c0 0c ff 61 bc 91 af fb bd 65 54 d3 be b3 82 78 bd
       -0.013793718 -0.12289346 -0.41275325 -0.06067152
0003d0 b7 a5 34 bc 66 f0 0e 3c 52 c5 0e be b2 ab 83 3d
       -0.011025838 0.008724308 -0.13942459 0.06429233
0003e0 16 45 47 be 42 28 9c bb ee 4c 8e 3d 4e bf fc bb
       -0.19459948 -0.0047655413 0.06948267 -0.007713235
0003f0 3a 47 39 bd 48 ac 1e be 52 37 fa bd ec e6 28 3e
       -0.045233943 -0.15495408 -0.12217583 0.1649434

context_transformer_0/ffn_layer_2/intermediate_dense/einsum/Einsum;context_transformer_0/ffn_layer_2/intermediate_dense/Relu;context_transformer_0/ffn_layer_2/intermediate_dense/add f4 [32]
000000 b9 de 57 be ac 36 08 3d 4e 08 61 be 20 fd 87 bd
       -0.21081056 0.033255264 -0.21975824 -0.06640077
000010 df ce 83 be b1 2e 78 be 37 fd 7a be 59 2e e3 bd
       -0.25743768 -0.24236561 -0.24510656 -0.110928245
000020 23 d2 c7 3d 37 c1 a7 bd 09 1b a3 be 85 36 05 be
       0.09756877 -0.0819115 -0.31856564 -0.13009079
000030 aa d2 08 be 1f 0e be bd 62 35 53 bc ae 75 22 be
       -0.13361612 -0.09280037 -0.012891145 -0.15865204
000040 ac a0 95 be 57 77 d9 be 4a d6 1b 3c cd d8 f1 bd
       -0.29224145 -0.42473862 0.00951154 -0.118089296
000050 1f 18 dd bd b2 4e a6 be de f1 84 3d 8a 86 80 3d
       -0.10795616 -0.32481915 0.06491445 0.06275661
000060 e6 9f 23 be c4 12 e5 be bf 55 5c bd c9 8b 05 be
       -0.15978965 -0.4474088 -0.05379271 -0.13041605
000070 28 12 e2 bd 17 9c c4 bd 7b d3 0c be 50 df 24 3e
       -0.11038619 -0.09600084 -0.13752548 0.16100812
