.dart_tool/chrome-device/Default/optimization_guide_prediction_model_downloads/f36c7ac3-dbdf-43f3-a91a-e99848d25235/model.tflite (tflite, 410364 bytes, 166 tensors)

context_transformer_0/bottleneck_input/norm/add f4 [32]
000000 88 35 19 bd 32 1b 70 3d 68 c1 8d 3d e2 d3 db bc
       -0.037404567 0.058619685 0.06921655 -0.026834432
000010 1d 07 fd bd 16 e0 d8 3c 75 2c 00 3e c0 86 b8 bd
       -0.123548724 0.02647404 0.12516959 -0.090100765
000020 2e cf 83 bd 8f 63 d2 3d 98 df 00 3d b4 87 1d be
       -0.06436001 0.102728955 0.031463236 -0.15383798
000030 c0 1d fd 37 3a 69 c5 3d 0f c8 e2 3c 80 66 16 3d
       3.0173804e-05 0.09639211 0.027683286 0.036718845
000040 a2 56 c8 bd 20 19 33 bd 4d 8e e3 3d d7 f7 c0 bd
       -0.09782149 -0.043725133 0.11111126 -0.09422272
000050 4e c6 94 be 97 7c 72 bd 71 13 c5 3d 40 9c 8c bd
       -0.29057544 -0.05920085 0.09622849 -0.0686574
000060 56 ee b4 bd 58 b0 88 3d 00 fa ac 3c c7 4a 5e be
       -0.088345215 0.0667426 0.021115303 -0.21708213
000070 ea 62 50 bc 74 b5 25 bc ce cd f1 bc ff 7c 7c 3d
       -0.012718895 -0.010114063 -0.02951708 0.061642643

context_transformer_1/bottleneck_input/norm/add f4 [32]
000000 a1 7f d9 3c 5d 85 3c be 20 18 87 3b a8 f4 1d 3e
       0.026550116 -0.18410249 0.004122749 0.1542536
000010 34 84 23 be 26 c3 33 3e 5f e6 b6 bd 26 d1 a5 3d
       -0.159684 0.17554912 -0.089306585 0.080965325
000020 be 97 93 3c c0 24 1c 3c 70 7b 25 3d 2b 21 8e 3d
       0.018016692 0.009530246 0.040400922 0.0693992
000030 74 a8 99 3d a0 c1 b9 3a a4 57 53 bd 8c a9 98 3d
       0.07502833 0.0014172085 -0.051597252 0.074542135
000040 73 88 d2 3d de 6f f0 3d da 0a 98 bd 8a 0c b4 3d
       0.10279932 0.11740087 -0.07423945 0.08791454
000050 ef 4a cb 3e 92 c9 c5 3c 42 b9 7d 3e 75 3c b9 3d
       0.39705607 0.024143968 0.24777701 0.090447344
000060 e0 e2 8f 3d 67 d8 fc 3d 22 6d 23 3c 20 c7 c8 bc
       0.07025695 0.12345963 0.00997475 -0.024509013
000070 bb 5f c6 bc e0 67 c9 3c 67 70 25 be 20 89 8e ba
       -0.02421557 0.024585664 -0.1615616 -0.0010874607

mention_transformer_0/bottleneck_input/norm/add f4 [32]
000000 40 ea 7b bd ae e0 8c 3d 71 fe 07 3c 44 11 24 3e
       -0.061502695 0.06878792 0.00830041 0.16022211
000010 80 b9 f6 bc 56 8a 35 3e bd cf 70 be 06 b6 6f bd
       -0.03011775 0.17728552 -0.23516746 -0.0585232
000020 5c 69 c0 bd 2c d7 5f bd 2f 2f 91 3d 13 a1 81 bd
       -0.09395096 -0.054648563 0.07089078 -0.063295506
000030 16 ad f3 bd 78 fc 80 bd 1b 55 46 be 90 40 b4 bd
       -0.11898248 -0.062981546 -0.19368403 -0.08801377
000040 ee e0 07 bd 0e 6b b8 3b da c2 ab 3d 5c b2 3f be
       -0.033173494 0.0056279963 0.08386774 -0.18720382
000050 3a 95 fa 3d c9 fb 5a 3d 40 ae de bc 8f 92 0e 3e
       0.12235494 0.053462777 -0.027182698 0.13923095
000060 d8 b6 7a 3d bc 56 a5 3d 38 35 05 be cc ef 28 3d
       0.06120953 0.08073184 -0.13008583 0.041244313
000070 6e c4 a2 bc 54 41 b1 3d d4 ad a5 3c 04 54 78 3e
       -0.019869056 0.086550385 0.02022449 0.242508

mention_transformer_1/bottleneck_input/norm/add f4 [32]
000000 38 d7 28 be 9d bf 59 3e 43 e2 06 3d c9 e0 d7 bd
       -0.1648835 0.21264501 0.032930624 -0.10540921
000010 80 6c 22 3a 63 fd 2b be dc ac 57 3d 86 d6 2a be
       0.00061959773 -0.16795878 0.052655086 -0.16683397
000020 38 ae 98 be 36 de b6 3c b1 24 0e be 95 2b 02 3e
       -0.29820418 0.022322755 -0.13881184 0.12711938
000030 8e 80 47 be f6 32 42 be ef 40 36 be 40 be 89 3e
       -0.19482633 -0.18964753 -0.17798208 0.26902962
000040 11 c7 99 bd 0c 68 b1 be f1 53 4d bd 50 0e 2d 3c
       -0.07508672 -0.34649694 -0.05012888 0.010562494
000050 72 53 4d bd bd 07 6a 3d 24 db 99 3c b8 6a 9a bb
       -0.050128408 0.057136286 0.018781252 -0.004712429
000060 9c 0c 9b 3d 03 ec bd bc f0 29 3c bd 93 96 08 3e
       0.075707644 -0.023183828 -0.045938432 0.1333869
000070 a4 ce f2 3d ce 3e ea 3e 4c c6 a0 3d 86 5b 39 3e
       0.1185582 0.4575104 0.07850322 0.1810132

context_transformer_0/attention/value/add;context_transformer_0/attention/value/einsum/Einsum;context_transformer_0/attention/value/add/ReadVariableOp/resource f4 [32]
000000 43 5e b0 bc 9a 37 08 bd cb f2 98 3d 00 06 26 bd
       -0.021529322 -0.03325615 0.07468184 -0.040533066
000010 34 e8 5a 3c 66 f7 27 bd 4b b3 67 3d e0 0f 83 bd
       0.013361026 -0.041007422 0.05656747 -0.06399512
000020 9f 35 9d 3d 70 9d 95 3d 47 98 21 3c 70 a2 47 3d
       0.07676243 0.073054194 0.009862966 0.048738897
000030 32 a9 06 3d 06 2a 4c 3d 5e 27 e5 bc 22 61 86 bd
       0.0328762 0.049844764 -0.027972873 -0.06561495
000040 a9 f1 3a bc bc 02 22 bd c2 fb 1b bd 8d 11 9c bd
       -0.011410155 -0.03955339 -0.03808189 -0.07620535
000050 a8 aa 4f bd b7 d0 a0 3d 5e 11 17 bd 63 15 a4 b9
       -0.05069986 0.07852309 -0.036881797 -0.00031296452
000060 07 d2 38 3d ea 56 13 bd ae fc b3 3c 06 ba 96 bc
       0.045122173 -0.03597156 0.021971073 -0.01839925
000070 c0 74 b9 3c 66 a3 d1 3c 1e ae 72 3d 2f 52 0c bd
       0.022638679 0.02559061 0.059248082 -0.034258064

context_transformer_0/bottleneck_input/norm/mul f4 [32, 32]
000000 74 97 a0 3d cd d2 4c bd aa e8 0c be 5c 8c d0 3d
       0.078413874 -0.050005723 -0.1376063 0.101830214
000010 83 81 fa 3d c2 21 be bd 85 1d 93 bd 01 22 ec 3d
       0.12231734 -0.092837825 -0.07183365 0.11529923
000020 53 df 13 be 93 ad d2 3c c3 d5 f9 bd 3b 41 8a bd
       -0.1444066 0.025717532 -0.12198975 -0.06750723
000030 5e b0 b1 bd bf 69 d7 3d ff 75 34 3d 2c 31 d9 3d
       -0.086762175 0.10518216 0.044057842 0.10605082
000040 86 0c 1c 3d 77 1b 77 bd 7b b7 28 bd 87 b1 e8 bd
       0.03809788 -0.060328927 -0.041190606 -0.11361986
000050 82 46 59 3c e0 d7 bf bd ba d4 b5 bd 5d 2e 20 be
       0.013261439 -0.09367347 -0.08878465 -0.15642686
000060 1a 38 c5 3d af cd 63 3e 4b f3 31 be ad 43 92 3e
       0.09629841 0.22246431 -0.17377965 0.28567258
000070 4e dc 0e bd 97 30 a1 be 1c dc 8d be 00 9d fc bb
       -0.034878068 -0.31482384 -0.27706993 -0.0077091455
000080 58 26 2e bf 54 4b d8 3e f6 99 11 3f b6 03 a4 3e
       -0.6802726 0.4224497 0.5687555 0.3203408
000090 6b b7 89 3e 94 ff b0 be be ce 9c 3e fa 79 0f 3f
       0.2689775 -0.3456999 0.30626482 0.56045496
0000a0 56 df 6f 3d 30 6f 2f 3e 8d bf 19 bf 42 c8 2b bc
       0.0585626 0.17132258 -0.6005791 -0.010484757
0000b0 d3 11 e1 be d3 b3 35 bf 09 63 ff 3e f9 91 19 3e
       -0.4395891 -0.70977515 0.49880245 0.1499709
0000c0 bd 5d 5d be 97 94 eb bc 37 28 ef 3e fb ce 9d 3e
       -0.2161779 -0.028757377 0.4671037 0.30821976
0000d0 13 59 b2 be 3a 23 7f be 2f c1 9c be 18 98 39 3c
       -0.34833583 -0.24915782 -0.30616137 0.011327766
0000e0 49 82 96 3e 1b a3 b8 be db d8 71 bc 94 80 b9 be
       0.29396275 -0.3606194 -0.014761175 -0.3623091
0000f0 18 99 e6 3e 8b 21 87 be 6e 34 58 3e 5f ab 17 bf
       0.45038676 -0.2639278 0.2111375 -0.59245867
000100 e6 97 48 be 4f 43 30 be 76 6f 32 3c 08 ec c1 bd
       -0.19589195 -0.17213176 0.010890832 -0.094688475
000110 d6 24 4f be 29 0d ee 3c 60 16 8d bc 1e 93 51 3e
       -0.20228896 0.02905901 -0.017222583 0.20466277
000120 90 bf 91 be 63 c8 12 bd 65 1e f8 bd f6 dd 6c bd
       -0.28466463 -0.035835635 -0.12115172 -0.057828866
000130 39 ef d9 be 53 d5 6a be 0a 14 22 bb 99 63 09 be
       -0.42565325 -0.22932939 -0.0024731182 -0.134169
000140 0f 26 22 3e 0d 84 39 be f4 eb 14 3f 0c 6f 0e be
       0.1583483 -0.1811678 0.58172536 -0.13909549
000150 53 5d 10 bf 61 bb a0 3e 14 1d 06 3c 9c 17 e9 3d
       -0.563924 0.3139296 0.008185644 0.11381456
000160 c8 0c ca be b0 34 4a be c9 20 0d bf 6a 06 5b be
       -0.39462876 -0.19746661 -0.5512815 -0.21389166
000170 c6 24 af 3d ff ec fd 3d 4c 88 9c be e1 99 b0 be
       0.08551936 0.12398719 -0.30572736 -0.344924
000180 4e 8a b0 be f7 30 80 3c 76 05 86 bc 5e 40 84 bc
       -0.34480518 0.015648348 -0.016360026 -0.016143974
000190 d1 62 02 3c e9 1b 99 be aa b2 a1 be 1e 5f 83 3e
       0.00795813 -0.29904106 -0.31581622 0.25658506
0001a0 7a 8e 30 3e 9f 96 7b 3e 35 11 13 bd f7 b7 3f 3e
       0.1724185 0.24569176 -0.03590508 0.18722521
0001b0 30 59 51 be d6 9d e7 bd 3d 53 46 3e 52 62 89 3c
       -0.20444179 -0.11309402 0.1936769 0.016770516
0001c0 19 be 3b 3e 5b c6 b3 bd b0 ab b6 3d 8a fd 3a be
       0.18334235 -0.08778068 0.089194655 -0.1826078
0001d0 a5 96 b1 3e de 6d 75 3c 25 84 c4 bd b0 15 29 3e
       0.34685245 0.014979808 -0.09595517 0.1651218
0001e0 3a a0 7b bd 0e 09 38 3e 7e bb 4c 3b 94 f8 9a 3e
       -0.0614321 0.17972204 0.0031239684 0.30267775
0001f0 cf 68 80 be ff 47 51 be c8 7c 10 3d 85 1d cf bd
       -0.25079963 -0.2043762 0.03527525 -0.10113052
000200 fa 3c 42 3e 70 7e b3 bd 33 38 f0 3d 4c bc 2e be
       0.18968573 -0.087643504 0.11729469 -0.17064017
000210 d2 6c 28 3d a9 1b 0d 3e f7 cf ad bd a3 28 de bc
       0.041119404 0.13780083 -0.08486932 -0.027118986
000220 0b bf 75 be 63 79 e9 3d 3a 38 93 be c6 65 5a 3e
       -0.23998658 0.11400106 -0.28753835 0.21327886
000230 8b 4d 15 3e f7 e2 62 be 4a 8f 7b be d7 c5 fc 3c
       0.14580362 -0.22156893 -0.24566379 0.030856056
000240 82 db 14 bd a9 07 ed be f3 c1 c4 3e 9a 29 9a be
       -0.03634215 -0.46294907 0.38429222 -0.30109864
000250 ee c1 da bd f9 09 07 be ac 41 40 be c8 44 00 bd
       -0.106815204 -0.13187398 -0.18775052 -0.031315595
000260 00 51 3d bb 09 24 9c 3d ba 44 c0 bc cd 63 ae 3e
       -0.002888739 0.07624061 -0.023470271 0.34060517
000270 5d d7 fd 3c 81 f4 a0 ba 2c 76 c4 3d 56 8c 81 3d
       0.030986482 -0.0012279899 0.09592852 0.06325595
000280 16 e1 ff 3d 88 ae 98 bd de 5a ff bd 2f 64 b6 be
       0.124941036 -0.07455164 -0.124685034 -0.3562331
000290 bf b6 7c be 57 74 8c 3d 53 cf 95 be f5 a6 af bd
       -0.24679087 0.068581276 -0.29259738 -0.085767664
0002a0 94 c0 02 3d 59 a8 84 bc 97 af 07 be 95 7a 55 3e
       0.031921938 -0.016193556 -0.13250576 0.20847543
0002b0 c4 28 85 3d 20 e1 22 be d8 3c bf be db c5 69 3e
       0.06501916 -0.15906191 -0.37351108 0.22829382
0002c0 f9 89 44 3d 3c bc 2e be 18 82 9f 3d 06 40 ff bd
       0.047983143 -0.17063993 0.07788485 -0.124633834
0002d0 1d 2f c5 bd 8c 63 eb bd cd 26 f9 bd 18 d2 c9 3c
       -0.09628127 -0.114935964 -0.12165604 0.024636313
0002e0 ff 56 8f be 2c 62 b3 3c d9 4a 0b 3e a3 53 7a bd
       -0.2799606 0.021897398 0.13602771 -0.06111492
0002f0 b0 79 18 be cc 19 54 be 30 11 45 be 58 0d 15 3e
       -0.1489017 -0.20712966 -0.19244838 0.14555871
000300 42 ba 74 3c e5 9c 5b 3d ce d5 a1 be c5 5f a7 be
       0.014936985 0.053616423 -0.31608433 -0.32690254
000310 85 7e 54 3e 13 9a 07 3e 35 2e 06 bf 07 68 6c 3e
       0.20751388 0.13242368 -0.52414256 0.23086558
000320 fd 53 29 be b1 4e 1a 3e 2d 1b e1 bd 6d a3 ff 3e
       -0.16535945 0.15069081 -0.109915115 0.4992937
000330 ca c1 12 bf e1 8a 74 3c d3 26 b3 3e 9f 24 48 be
       -0.5732695 0.014925689 0.34990558 -0.1954522
000340 03 92 d7 3d cc 9f 8c 3d ee 4c 87 3b 7c c1 b5 3e
       0.105258964 0.06866416 0.004129044 0.3549918
000350 79 d1 08 3e 96 75 21 3f 44 26 c8 3e 64 0e ce 3e
       0.13361157 0.63070047 0.39091694 0.40245354
000360 b5 f2 8b 3d 55 c3 05 bd 21 ae 06 3e 6c 12 7c 3d
       0.06833402 -0.032656986 0.13152362 0.061541006
000370 d1 e8 80 3e 21 f8 2b be 10 1b 71 b8 04 90 b9 3e
       0.25177625 -0.16793872 -5.748408e-05 0.36242688
000380 08 fe a0 3e 98 25 44 be e9 10 9e be df b4 b7 3e
       0.3144381 -0.19154966 -0.30872276 0.3588018
000390 3e 14 42 3e be d0 7b bd 24 cd 83 bd 4f 48 cc 3d
       0.18953034 -0.06147837 -0.06435612 0.09974729
0003a0 a3 56 03 be 98 c0 8e 3d 36 93 9d bd a5 07 1a 3d
       -0.12826018 0.06970328 -0.07694094 0.037604947
0003b0 fa 63 a7 bd f3 ea 6f 3e bd bf 8b 3d 17 21 86 3e
       -0.08173366 0.2342947 0.068236805 0.2619712
0003c0 71 9c 1a 3d 1d d7 95 3c 46 7a 4b 3d d3 f4 bb bd
       0.03774685 0.01829105 0.049677156 -0.09177556
0003d0 3d a4 e1 bd f8 6e 3d bd a8 d2 04 be a7 99 c1 3c
       -0.11017654 -0.046248406 -0.12970984 0.023632837
0003e0 54 a0 fb 3d 2f 64 2c 3e 4a cb 05 be 0d 69 56 3d
       0.122864395 0.16835092 -0.1306583 0.052346278
0003f0 35 14 c8 3d 2a 0f 14 be c3 b9 bf bd 19 1e 87 bd
       0.09769479 -0.1445891 -0.09361603 -0.065975375

context_transformer_0/kq_shared_bottleneck/norm/mul;context_transformer_0/kq_shared_bottleneck/norm/add;context_transformer_0/attention/key/einsum/Einsum;context_transformer_0/attention/key/add;context_transformer_0/attention/value/einsum/Einsum;context_transformer_0/attention/key/add/ReadVariableOp/resource f4 [32]
000000 0f 2f 6c 3e b4 ac a8 be 08 55 68 be d3 d3 5b 3e
       0.23064826 -0.32944262 -0.22688687 0.21467523
000010 c9 29 41 3e 85 4d 56 3e d7 2a 64 3e cd 81 64 be
       0.18863596 0.20928009 0.22281967 -0.2231514
000020 9a 23 2b 3e ec fd 41 bd e0 06 52 bd af c1 51 bd
       0.167128 -0.0473613 -0.051276088 -0.0512101
000030 a3 af ae bd 98 de 93 3d 49 39 1e 3d 75 60 42 bd
       -0.08529594 0.07220191 0.03862885 -0.04745527
000040 0f ab 4c be 02 b3 53 be 5a ee 59 be 1e f0 5f 3e
       -0.19987129 -0.20673755 -0.2128233 0.21868941
000050 01 7f 5b be dc 68 33 3e 5d 67 f5 bd ba c4 27 be
       -0.21435167 0.1752047 -0.119826056 -0.16383639
000060 70 23 a2 3e 5e 95 9b be 75 64 63 3e 1f c3 a7 be
       0.31667662 -0.30387396 0.2220629 -0.32766053
000070 2f f4 7e be 30 bd 47 3e bb 69 72 be c2 fa aa be
       -0.24897836 0.19505763 -0.23673145 -0.33394438

context_transformer_0/kq_shared_bottleneck/norm/mul;context_transformer_0/kq_shared_bottleneck/norm/add;context_transformer_0/attention/key/einsum/Einsum;context_transformer_0/attention/key/add;context_transformer_0/attention/value/einsum/Einsum;context_transformer_0/attention/key/add/ReadVariableOp/resource1 f4 [32, 32]
000000 21 bf 0a 3e 1f 81 59 3e 5f 61 81 bc fd 35 c5 bc
       0.13549472 0.21240662 -0.0157935 -0.024073595
000010 ef 6f 2d 3d 63 ec 9b 3d 47 85 44 3e b1 af 4c bd
       0.042343076 0.076134466 0.19191466 -0.04997224
000020 0e fa 0e be 7c f8 b4 bd 60 3a 2a 3e e6 e3 81 be
       -0.13962576 -0.08836457 0.16623831 -0.25369185
000030 7a 2a 92 3d dd 01 cf bd c2 ff 86 be 99 68 04 bb
       0.07137008 -0.10107777 -0.26367003 -0.0020203947
000040 55 0f 08 3e e9 25 ef bd 31 8d 5c bd 99 13 d7 bd
       0.13287099 -0.11677153 -0.053845588 -0.10501785
000050 cf c0 03 be 39 29 32 3c bf 54 ab 3e a8 c6 d7 bc
       -0.1286652 0.010874086 0.33463094 -0.026339844
000060 9b 6a d1 3d 96 46 dc 3d 32 5f 8f 3d 48 4e fd 3b
       0.102254115 0.10755651 0.07000579 0.007730279
000070 c1 3f c2 3d 1b db b7 3d fb 67 8d 3d 0f 5a 89 3c
       0.09484816 0.08977338 0.06904598 0.016766576
000080 23 c1 59 be 66 a4 29 be 81 a1 c7 bd b6 ac 86 bd
       -0.21265082 -0.1656662 -0.09747601 -0.06575911
000090 c8 eb 39 be 12 f4 ad bd a2 f1 d7 be 13 b4 09 3e
       -0.1815635 -0.08493818 -0.4217654 0.13447599
0000a0 1f 15 65 bc f0 7f a5 3d 6c 3e 1c be 0b 31 8d 3e
       -0.013982086 0.08081043 -0.15258187 0.2757648
0000b0 91 99 04 be 92 9d 31 3e 23 9a e4 3e b5 d8 56 bd
       -0.12949206 0.17345265 0.44648847 -0.05245276
0000c0 c0 69 b1 bd 1f b0 6e 3e 44 54 2b 3e 8e 17 a7 3d
       -0.08662748 0.23309372 0.16731364 0.081587896
0000d0 eb 3f 33 3e 1e ea ea 3c 77 02 ba be 3d cd 16 be
       0.17504852 0.028676089 -0.36330006 -0.1472673
0000e0 ff d7 6d bc cf 67 a0 be 95 9d 0c bd 9a 43 02 be
       -0.0145168295 -0.313292 -0.03432997 -0.127211
0000f0 f8 0a a6 bd 01 56 96 bd db f4 36 3d 08 12 92 bd
       -0.08107561 -0.07340623 0.044667106 -0.071323454
000100 0a 0f 23 be 90 7c 69 be bc a8 e8 3c cf 4f fd bd
       -0.15923706 -0.22801423 0.028400771 -0.12368738
000110 11 b6 da bd 9e 6c 66 be c0 9a 35 3e 2a bf e3 3d
       -0.10679258 -0.22502372 0.17734814 0.11120446
000120 fb 05 84 3e 65 2d ca bd 08 0c 2d be 2e 0a d7 3d
       0.25785813 -0.098719396 -0.16899121 0.104999885
000130 70 e1 aa bd a4 8e 04 3e 85 a8 89 3d d7 c1 99 bd
       -0.0834378 0.12945038 0.06721596 -0.07507675
000140 7e eb 46 be 1f ef 39 be a0 f3 f0 3c a2 9e 3d 3e
       -0.1942577 -0.18157624 0.029413044 0.18517545
000150 1d 8e 53 3e db a3 74 bd d0 72 8d be 14 41 98 3c
       0.2065968 -0.059726577 -0.27626657 0.01858572
000160 0d c7 d4 3d dc 7a 20 be 83 04 33 3e 67 1b 2f be
       0.103895284 -0.15671867 0.1748219 -0.17100297
000170 4a fc 8e 3d 4d 6f fb bd d2 0f 0e 3e 30 9e 77 3d
       0.06981714 -0.12277088 0.13873222 0.060453594
000180 02 7e fb 3d 89 72 5a 3e fe 7b 75 bd 4d 44 f2 3d
       0.122798935 0.21332754 -0.0599327 0.118294336
000190 7b 16 02 3e d6 83 60 3e 80 dc 91 be 8a 87 13 be
       0.12703888 0.21925291 -0.2848854 -0.14407173
0001a0 7a 75 8a be e8 95 d4 3d 68 0c 48 3e 2a 72 c5 bd
       -0.27042753 0.10380155 0.19535983 -0.09640916
0001b0 ac 37 b2 3d 30 ae 18 be 1c 36 2d bd 22 5a b7 3d
       0.08702025 -0.14910197 -0.04228793 0.08952738
0001c0 86 7b 52 3e 6d 6f 41 3e 17 95 9e 3c 64 08 56 be
       0.20554933 0.18890162 0.019358201 -0.20901638
0001d0 04 5c 42 be a7 a7 5e 3d 88 4d 85 3e f2 8c 0e bc
       -0.18980414 0.054359104 0.26035714 -0.008700596
0001e0 07 f8 07 be cd ec 12 3e da de 65 be 1d 1c 32 3e
       -0.13278209 0.14348145 -0.22448292 0.17393537
0001f0 c3 67 da bd 75 4b 15 3e d3 16 38 be ad 04 47 bd
       -0.10664322 0.14579566 -0.17977457 -0.048588444
000200 2a 5c ef 3d 29 4f 2a 3e 63 e7 df bc 6c 83 c3 3d
       0.11687501 0.1663176 -0.027332013 0.09546551
000210 98 e4 5d 3d ea 55 27 3e 9d 00 2e be 9f 90 d6 bd
       0.054173082 0.16341367 -0.16992421 -0.10476803
000220 df 9a 52 be c0 07 99 3d dc ca 17 3e df ac d1 bd
       -0.20566891 0.07472181 0.14823478 -0.10238051
000230 5e fa 62 3d 3b 35 f8 bd 1d 4f 23 bd 63 d1 62 3d
       0.05541455 -0.12119528 -0.03987037 0.055375468
000240 6c 83 0b 3e a0 6a a6 3d 98 e3 68 3c a0 6f 31 be
       0.13624352 0.08125806 0.014214419 -0.17327738
000250 af 8c 43 be e5 79 c0 3d 2d 26 8e 3e 4e 4a 5d bc
       -0.19096635 0.093982495 0.277635 -0.013506485
000260 90 59 8a bd b1 df ee 3d 28 c6 0d be 40 05 d3 3d
       -0.06755364 0.116637595 -0.13845122 0.10303736
000270 7d ab 5b bd 50 33 ee 3d f7 ab ad bd 84 b0 6d bd
       -0.05363034 0.11630881 -0.08480065 -0.058029667
000280 41 af 31 3e eb 96 73 3e 0b e5 fe bc 88 c6 02 3e
       0.1735201 0.2378804 -0.031115076 0.12771046
000290 8f 17 d8 3d c1 47 75 3e 7d f9 7a be b4 a3 f3 bd
       0.105513684 0.23953153 -0.24509235 -0.11896458
0002a0 be 7a 6b be 0a 6c d1 3d 2c d4 28 3e 73 41 b6 bd
       -0.22996041 0.10225685 0.16487187 -0.08899202
0002b0 38 cc 97 3d a9 12 02 be cf c9 98 bc 78 7d a5 3d
       0.074119985 -0.12702431 -0.018650917 0.08080572
0002c0 22 74 40 3e 5e 4f 27 3e 39 4c 7f 3c f1 15 50 be
       0.18794301 0.1633887 0.015582138 -0.2032087
0002d0 67 50 4b be e0 80 9a 3d bc ee 68 3e 4d d7 83 bc
       -0.1985489 0.07544112 0.2274732 -0.016093874
0002e0 b1 d1 e3 bd d5 1a 0d 3e 4a 7f 45 be c6 55 36 3e
       -0.1112398 0.13779767 -0.19286838 0.17806157
0002f0 f0 5a 97 bd 8a 0a 09 3e 78 c9 1d be 66 77 7c bd
       -0.07390392 0.13382927 -0.15408885 -0.061637305
000300 54 9a 0d 3e 1c 63 64 3e 45 84 b2 b9 dd 7e ee 3d
       0.13828403 0.22303432 -0.00034049354 0.11645291
000310 c7 70 dc 3d ac f9 55 3e a0 39 61 be 60 aa fc bd
       0.10763698 0.20896024 -0.21994638 -0.12337184
000320 d9 fa 88 be d9 14 ed 3d ca f2 3b 3e b2 e0 e1 bd
       -0.26753882 0.11576242 0.18354335 -0.11029185
000330 3f 7f 5b 3d b0 0d 0d be b7 84 11 bd 39 a9 be 3d
       0.05358815 -0.13774753 -0.035526957 0.093096204
000340 f9 af 10 3e fc 45 1f 3e 8e 60 ed bc 4b bc 2b be
       0.14129628 0.1555404 -0.028976705 -0.16771047
000350 50 73 4f be 23 5e 40 3d c2 dd 62 3e a9 f3 69 bd
       -0.20258832 0.046964776 0.22154906 -0.057117138
000360 2c a0 d2 bd ed 39 0f 3e ef 0f 41 be f4 cd 2b 3e
       -0.102844566 0.1398694 -0.18853734 0.16777784
000370 e1 52 d5 bd 72 84 e2 3d fb 94 1e be 4d ad fd bc
       -0.104161985 0.11060418 -0.15486519 -0.030966425
000380 01 22 16 be 81 c3 63 be 72 ae 35 3d e9 71 d8 bd
       -0.14661409 -0.22242548 0.044355817 -0.10568602
000390 d4 d2 e5 bd 48 69 50 be 5c 3a 55 3e f9 96 b3 3d
       -0.11221853 -0.20352662 0.20823044 0.0876903
0003a0 00 1a 83 3e f4 98 c5 bd 0c 17 17 be 0c 1f f1 3d
       0.25605774 -0.09648314 -0.14754885 0.117735
0003b0 23 c2 75 bd f6 02 0e 3e 4e ea ff 3c 63 3a 3c bd
       -0.059999596 0.13868317 0.031239655 -0.04595412
0003c0 c2 33 15 be a3 62 2b be ee cb 7a 3c c6 34 4f 3e
       -0.14570525 -0.16736846 0.01530741 0.20234975
0003d0 2b db 6e 3e 12 d0 9c bd 85 b7 86 be 5d 0e fa 3b
       0.23325793 -0.07656874 -0.2631189 0.007631107
0003e0 73 30 e9 3d b1 c2 e7 bd 61 d0 25 3e ce 0b 25 be
       0.11386194 -0.11316431 0.16192771 -0.16117784
0003f0 6b 06 81 3d de db 00 be e2 e6 14 3e 8a 30 e6 3c
       0.06300052 -0.12583873 0.145412 0.028099317

context_transformer_0/kq_shared_bottleneck/norm/mul;context_transformer_0/kq_shared_bottleneck/norm/add;context_transformer_0/attention/query/einsum/Einsum;context_transformer_0/attention/query/add;context_transformer_0/attention/value/einsum/Einsum;context_transformer_0/attention/query/add/ReadVariableOp/resource;context_transformer_0/attention/Mul;context_transformer_0/attention/Mul/y f4 [32]
000000 08 cb 53 bd be e3 d2 3d 9f 57 56 3e 5e 9a 74 be
       -0.051707298 0.102973446 0.20931862 -0.23887011
000010 45 fc 16 be c0 a2 54 be 98 4a 53 be f8 68 4d 3e
       -0.1474467 -0.20765209 -0.20633924 0.20059574
000020 76 39 ba bd 82 82 fc bd 87 4d 20 be 53 6d c6 bd
       -0.09092991 -0.1232958 -0.15654574 -0.09688821
000030 08 9f 5e 3c 5f de 9b 3d 2e f5 43 be f1 62 b4 bd
       0.013587721 0.07610773 -0.19136497 -0.08807934
000040 af 6d 11 be e6 c0 8b bd dd b3 7c 3d ad df dc 3d
       -0.14201997 -0.06823902 0.06169497 0.1078485
000050 d1 82 a8 3e b0 78 84 bd 82 db 20 3e 2c 48 c2 3a
       0.32912305 -0.06468332 0.15708736 0.0014822534
000060 00 f7 10 3e 8a 5e 18 be 75 1f 21 3e 95 1b 90 be
       0.14156723 -0.14879814 0.15734656 -0.28146043
000070 d1 51 2f be 00 38 4c 3e d7 af 3b be b0 1c 5a be
       -0.17121054 0.19943237 -0.18328796 -0.21300006

context_transformer_0/kq_shared_bottleneck/norm/mul;context_transformer_0/kq_shared_bottleneck/norm/add;context_transformer_0/attention/query/einsum/Einsum;context_transformer_0/attention/query/add;context_transformer_0/attention/value/einsum/Einsum;context_transformer_0/attention/query/add/ReadVariableOp/resource;context_transformer_0/attention/Mul;context_transformer_0/attention/Mul/y1 f4 [32, 32]
000000 cb 36 83 3c c1 e1 ff ba 17 13 9b bc 1d da 53 3d
       0.016017338 -0.0019522236 -0.018930001 0.05172168
000010 ab 00 65 3d 60 48 46 3c b3 f1 44 3e 11 9f 9b bc
       0.05590884 0.0121022165 0.19232826 -0.018996747
000020 b1 5c 9c 3d d2 5e de 3c 5d 06 9f 3c c1 dc 44 3d
       0.07634867 0.027144823 0.019412214 0.04806209
000030 e9 c1 b5 3c 2d 2b 47 bc d5 b3 b9 3a fd 11 4b 3d
       0.02218719 -0.01215629 0.0014167974 0.0495777
000040 48 24 02 3c 6d 18 29 bd e0 1f e7 3c 11 dc 22 bc
       0.00794322 -0.04128306 0.028213441 -0.009940163
000050 01 2e 1b bc 39 cb 86 3c fc ac dc bd 32 72 74 bc
       -0.009471417 0.016454326 -0.10775182 -0.014919804
000060 f3 32 d4 3c 68 34 5c 3d 49 50 b8 3c 6e 89 03 3d
       0.0259032 0.053760916 0.02249922 0.032113485
000070 21 03 11 3d ea 03 cc 3c d2 fa 48 3c 76 8f 4e bc
       0.035403375 0.02490421 0.0122668315 -0.012607446
000080 5a 2f 0b be 05 e2 aa 3c 1c 46 c1 3c 2d bd ee bd
       -0.13592282 0.020859728 0.023593001 -0.11657176
000090 06 b6 83 bd 95 d7 1f bd fc d0 8a be 5a 03 50 3d
       -0.064312026 -0.039023954 -0.27112567 0.050784446
0000a0 56 b5 5e bd ea a8 cf bc 47 65 ee bc c0 de 08 be
       -0.054372154 -0.0253491 -0.029101027 -0.13366222
0000b0 49 8f fd bd 1e ce 22 3d fd b7 14 bd f8 8d 9b bd
       -0.12380845 0.03974735 -0.036308277 -0.07595438
0000c0 27 60 af bc cd 05 bf 3d 72 72 38 bd 5e eb 49 3b
       -0.021408154 0.09327278 -0.04503102 0.0030810456
0000d0 02 7f 0b 3d 85 11 9f bd 04 bd d6 3d 01 ae a2 3c
       0.03405667 -0.077670135 0.104852706 0.019858362
0000e0 f3 7c b2 bc 13 e2 b7 bd bf 76 ff bc 83 5e 4d bd
       -0.021788096 -0.08978667 -0.031184552 -0.05013896
0000f0 60 f2 04 bd 0a 3e 54 bd 2a 70 18 3d b8 c0 36 3d
       -0.03245771 -0.051816978 0.037216343 0.044617385
000100 6c 6c 8c bc d3 c9 3b 3d 8b 0f 1a 3d 0e 7a bc 3c
       -0.017141543 0.04584677 0.03761248 0.023007419
000110 3d aa 02 3d 97 97 8b 3b c3 ec 44 bd 2a 70 fb bc
       0.031900633 0.0042600143 -0.048077356 -0.030693132
000120 5f 68 d6 bc fc 8e 39 3d 47 57 c7 3c 0b d6 ff 3a
       -0.026172815 0.045302376 0.02433361 0.0019518746
000130 ba 8b 39 3c 32 27 97 bc fe 26 2b bb 0c d9 e8 bb
       0.011324817 -0.018451307 -0.002611577 -0.007105952
000140 2e 69 48 3d 85 f2 de bc 35 13 16 bd c6 fd da bc
       0.048928432 -0.027215252 -0.03663941 -0.026732337
000150 99 cf 9e bc 7c 4c 23 3d fc bc 83 3d 77 91 16 3d
       -0.0193861 0.039867863 0.0643253 0.03675982
000160 20 4c 1e 3d fd f7 82 3c b4 b7 8b 3d db 08 19 3d
       0.038646817 0.01598739 0.06822148 0.03736196
000170 7d 16 51 bb db 78 12 bc 8b 4d 43 bd e0 a0 d4 3c
       -0.0031904273 -0.008939947 -0.047681373 0.025955617
000180 3f 08 3a 3c 0b 0a 85 bd c3 78 67 bd b0 21 f0 bc
       0.011354505 -0.06496056 -0.05651165 -0.029312938
000190 4e eb 51 bd c7 c8 d3 bc 3e 38 94 3c fb 49 05 3d
       -0.051249795 -0.025852574 0.018093225 0.032541256
0001a0 a5 1d 06 3d 16 97 8f bd 11 99 33 bd a3 3a 33 3c
       0.032743115 -0.07011239 -0.043847147 0.010939273
0001b0 66 ad ae bc 72 55 12 3d 42 17 f6 3b b9 da 05 3b
       -0.021322917 0.03572602 0.0075100968 0.0020424558
0001c0 d9 a6 8b bd 27 8b 1e 3d c2 78 0f 3d 2a a1 00 3d
       -0.06818933 0.038706925 0.035027273 0.031403698
0001d0 fd fa 91 3c c5 c7 0b bd 33 0a 9a bd 2d b9 f8 bc
       0.017819876 -0.034126062 -0.075214766 -0.030361736
0001e0 2a 11 26 bd 64 14 d7 bc 09 d3 8b bd 3c 2a 3a bd
       -0.040543713 -0.02625484 -0.06827361 -0.045450434
0001f0 a5 37 a3 3b 27 ab d7 3c 6f eb 30 3d 95 4b 85 bc
       0.0049809986 0.026326729 0.043193277 -0.016271392
000200 61 f8 9c 3c e2 ad 3a bd 31 9e 15 bd 4e aa 9a bc
       0.019161405 -0.045575984 -0.036527816 -0.018880036
000210 1a c1 d4 bc 0a 58 86 3c 0c c0 27 3d 67 c2 92 3c
       -0.025970984 0.016399402 0.040954635 0.017914964
000220 2e 3f 9f 3c 11 e5 1b bd 58 2e 4b bc bf f0 c8 bb
       0.019439306 -0.03806025 -0.012401186 -0.006132215
000230 8c fb 73 bc d5 17 7a 3c 47 9a e9 bb d4 ec 4e 3c
       -0.014891516 0.015264471 -0.007128987 0.012629706
000240 eb d5 ff bc a2 63 a8 3c a7 5c f7 3b c5 6c 0e 3c
       -0.031229934 0.020555321 0.007548887 0.008692925
000250 24 fe 54 3c ee d7 09 bd 7e de 5f bd 4e 4c b1 bc
       0.013000045 -0.033653192 -0.054655544 -0.02164283
000260 a1 20 dd bb ec 19 92 bb 1e 2e 25 bd a5 0d fa bc
       -0.0067482744 -0.0044586565 -0.040327184 -0.030524084
000270 cb a0 a6 3c 3c 80 1b 3c 65 4e 24 3d 4a 78 0c bb
       0.020340344 0.009491023 0.040113825 -0.0021434003
000280 d2 f3 a8 3c 9e 5b 51 bd b7 6f 26 bd e7 a0 f4 bc
       0.020624075 -0.051112764 -0.040633883 -0.02986188
000290 74 53 22 bd b8 71 f4 b9 19 64 15 3d 44 67 d9 3c
       -0.03963037 -0.00046624034 0.036472414 0.026538499
0002a0 0d 69 3f 3c 1e 21 4f bd 4f 71 ed bc 14 69 82 3b
       0.011682761 -0.050568692 -0.028984694 0.0039798114
0002b0 97 a7 43 bc af 66 d0 3c aa e4 9c bc 87 ca c5 3b
       -0.011941812 0.025439588 -0.019152004 0.006036106
0002c0 88 5f 7f bd 09 5f 15 3d ca 32 ba 3c 61 a6 a2 3c
       -0.062346965 0.036467586 0.022729296 0.019854726
0002d0 cc 82 8e 3c 86 5f 1d bd c6 78 6e bd d6 2c fa bc
       0.017396353 -0.038421176 -0.058220647 -0.030538958
0002e0 ee 68 fe bc aa 68 88 bc 10 be 80 bd 14 f0 34 bd
       -0.031055894 -0.01665147 -0.062862515 -0.04417427
0002f0 8a 46 7c 3c d5 fc 8f 3c 14 7c 06 3d 12 10 f6 bb
       0.015397677 0.017576614 0.032833174 -0.00750924
000300 a3 00 c0 3c 70 75 5f bd eb 57 45 bd db aa d8 bc
       0.023437804 -0.054555357 -0.04817955 -0.026448658
000310 9f bd 3c bd 0f 7b 88 bc 78 b2 1f 3d d8 0e d7 3c
       -0.046079274 -0.016660241 0.03898856 0.026252195
000320 9a f0 81 3c 6c 7f 46 bd 56 66 fa bc 01 6d 56 bb
       0.015861798 -0.048461363 -0.030566376 -0.003271878
000330 f5 97 0d bc 64 16 a9 3c ca 40 46 bb d8 15 b5 ba
       -0.008642186 0.02064056 -0.003025102 -0.0013815714
000340 11 18 39 bd db 50 32 3d f5 50 eb 3c 25 ce a4 3c
       -0.045188967 0.04353414 0.028725127 0.020117829
000350 47 03 85 3c f6 7a fa bc f7 20 7f bd 18 24 d4 bc
       0.016236914 -0.03057621 -0.062287297 -0.025896117
000360 c4 f4 c3 bc ff ac af bc 0a 52 4b bd 03 6a 45 bd
       -0.023920424 -0.021444796 -0.049638785 -0.048196804
000370 57 39 d3 3b 22 c4 85 3c de 9e 52 3d a8 60 c6 bc
       0.0064460444 0.016328875 0.05142104 -0.024216011
000380 26 00 4f bc 58 46 40 3d ac f1 22 3d b2 96 ab 3c
       -0.012634313 0.046942085 0.039781258 0.02094588
000390 5a 31 fd 3c 02 fd 2a 3c 79 11 32 bd ad e2 db bc
       0.030907322 0.010436298 -0.043473694 -0.026841486
0003a0 ca d3 bf bc 41 c4 61 3d 7e 45 0b 3d e7 63 86 bb
       -0.023416419 0.055118803 0.03400182 -0.0041012648
0003b0 6a e9 63 3c fe 5a ca bc 7c c9 8b 3b b2 e3 42 3b
       0.013910631 -0.024701592 0.004265962 0.0029737768
0003c0 31 26 6e 3d ad 7e 12 bd e6 db 0d bd f1 f3 b3 bc
       0.05814189 -0.03576534 -0.03463354 -0.021966906
0003d0 63 e6 ac bc 2f 3e d9 3c f0 f9 7c 3d 03 86 ec 3c
       -0.02110595 0.02651891 0.061761796 0.028872496
0003e0 f6 d3 c0 3c 37 f8 ba 3c e2 9c 51 3d b3 ab 17 3d
       0.02353857 0.022823436 0.051175006 0.03702898
0003f0 e6 8c 7b bc 12 71 97 bc 1c 2a 5a bd 40 cb 91 3c
       -0.015353417 -0.018486533 -0.053262815 0.017797112

context_transformer_0/ffn_layer_0/intermediate_dense/einsum/Einsum;context_transformer_0/ffn_layer_0/intermediate_dense/Relu;context_transformer_0/ffn_layer_0/intermediate_dense/add f4 [32]
000000 ce 16 41 be e0 e9 9a be 07 99 d4 bd 4e f6 b0 be
       -0.18856356 -0.30256557 -0.1038075 -0.34562916
000010 49 f5 99 be c3 5f db be ef 0a 8e be 85 80 d9 be
       -0.3006995 -0.42846498 -0.27742717 -0.42480865
000020 22 3c aa be 5e b9 b9 be e9 ba bb be 78 68 58 be
       -0.33249003 -0.36274236 -0.3666604 -0.21133602
000030 1f a8 c3 be 6f 69 4c be 89 dc ef be 35 e5 93 be
       -0.38214204 -0.19962095 -0.46847942 -0.2888581
000040 f2 0f d2 be 5c 57 b4 be 4d b9 cd be c2 02 d1 be
       -0.4102779 -0.352229 -0.40180436 -0.40822417
000050 7c 1c 6a be 57 05 12 be a2 8a f2 bd af eb 3d be
       -0.22862428 -0.1425985 -0.11842848 -0.18546937
000060 bc 7f 5d be 5d 4c 3e be fb ec a2 be d8 34 24 be
       -0.21630758 -0.18583818 -0.31821427 -0.16035783
000070 07 df 25 be 96 f8 4a be 20 71 d6 be 66 87 9e be
       -0.1619836 -0.1982139 -0.41883183 -0.30962676

context_transformer_0/attention/norm/mul;context_transformer_0/attention/norm/add;context_transformer_0/ffn_layer_0/intermediate_dense/einsum/Einsum;context_transformer_0/ffn_layer_0/intermediate_dense/Relu;context_transformer_0/ffn_layer_0/intermediate_dense/add f4 [32, 32]
000000 3f 08 5d 3e d9 a3 9c 3d 85 e2 a6 3d ee 4d a8 bd
       0.21585177 0.07648439 0.08148674 -0.08217989
000010 d3 37 d3 3d 80 43 01 3e cb 34 87 bc 66 a8 d2 3e
       0.10313382 0.12623405 -0.016504666 0.41144103
000020 dc 15 04 3e 4b a2 d6 3d 19 04 36 be 1f 14 7b 3e
       0.12898964 0.10480174 -0.17775 0.24519394
000030 49 86 fc bc 35 48 36 be ff e3 08 bd ae 7e 6b 3c
       -0.03082575 -0.17800982 -0.03342056 0.0143734645
000040 f8 ef 71 3e f8 4d 01 be 27 a0 1d be 10 1d f5 3d
       0.23626697 -0.12627399 -0.15393125 0.11968434
000050 81 49 9d 3e 0c dd 3a 3e 11 8b 08 3e 6b e4 52 3e
       0.30720142 0.18248385 0.133343 0.20594947
000060 91 f0 5f 3e 74 71 ee 3d d9 5c 6f 3e 45 cd 1a 3e
       0.21869113 0.11642733 0.23375262 0.15117367
000070 2a 19 91 3d 30 9b 9a 3d 8a 01 9f bd 4a c7 a8 be
       0.07084878 0.07549131 -0.077639654 -0.32964545
000080 34 32 0d 3e 25 aa af be b7 93 5b 3d 6f 52 8c be
       0.13788682 -0.34309497 0.05360767 -0.27406642
000090 bf 30 81 3e 2b d8 87 3e a0 86 8f be f1 47 8a 3e
       0.25232503 0.2653211 -0.28032398 0.27008012
0000a0 7b fb 08 bd 72 f1 5a 3e 19 40 15 be 6a df ab 3e
       -0.033442955 0.21381167 -0.14575233 0.3356889
0000b0 90 fb 52 bd 6b 9f 56 bd a6 d3 98 bd 6b ef 02 3d
       -0.05150944 -0.052398127 -0.07462244 0.031966608
0000c0 98 17 94 3e 95 3a 21 be bc 94 9e be bc e3 25 3e
       0.2892425 -0.15745004 -0.3097285 0.16200155
0000d0 a7 3f 98 3e 9f 0b 82 3d 39 f2 15 be 53 f4 a9 3e
       0.29736063 0.06349873 -0.14643182 0.33194217
0000e0 97 18 0f 3e d8 47 35 be 9e 6f de 39 c8 f4 7b bd
       0.13974224 -0.17703187 0.000424263 -0.06151274
0000f0 c7 db 30 3d df b9 6c 3d 43 c0 2b 3e ab 19 db 3d
       0.043178346 0.057794448 0.16772561 0.10698255
000100 3b 12 8d 3c 1d 79 b2 be aa c8 53 3d 2b 5d 16 be
       0.017220607 -0.34858027 0.05170504 -0.14683978
000110 e9 77 ab bc bd 92 4d 3e 42 56 6d 3e 3c 7b 4a 3e
       -0.020931201 0.20075507 0.23177436 0.19773573
000120 07 28 84 3e 78 92 2b be 99 5c 5c be a7 ce a8 3e
       0.25811788 -0.16755092 -0.21519698 0.32970163
000130 25 e3 66 3e f0 7e 98 be 20 4d 54 be 5a 2e 3b be
       0.22547586 -0.29784346 -0.20732546 -0.182794
000140 f1 2f 7e be e4 bf 3c bd 93 14 2e be 52 9b 61 bc
       -0.24822976 -0.04608144 -0.17000036 -0.013769941
000150 b5 53 54 3e dc de 51 bc 42 0d 2d bd 93 9b e3 bd
       0.20735057 -0.0128094815 -0.04224897 -0.11113658
000160 ce a8 e0 3d f5 f1 d2 bd ae 07 ed 3e 0e 51 87 3e
       0.10969697 -0.10300056 0.46294922 0.26429027
000170 e1 17 6a 3e d2 d5 b1 3c fa a6 8b 3c 7b 9d 31 3e
       0.22860672 0.021708403 0.017047394 0.1734523
000180 f8 d9 1a be 93 1a bd be 40 c6 3b be 2f e6 a6 3c
       -0.15122211 -0.36934337 -0.18337345 0.020373432
000190 c4 e5 8c 3e 6a ec c1 bd 02 0e 50 be db 73 20 3d
       0.27519047 -0.094689205 -0.20317844 0.03917299
0001a0 e4 68 31 3e ab b7 05 3d 23 f1 cc 3d cb 66 2b 3e
       0.17325169 0.032645863 0.10006931 0.16738431
0001b0 98 e4 db bd a3 32 17 3e fa 43 b5 3d 77 4e 25 be
       -0.1073696 0.1476541 0.08850856 -0.16143213
0001c0 9a 87 aa 3e c4 e3 2c 3e f1 8c 58 be 45 f8 e9 3d
       0.3330658 0.1688376 -0.21147515 0.11424307
0001d0 8e ed d1 3e 6d ef a2 3b d7 bb 6c 3d bb 2d 86 3e
       0.41001552 0.0049723894 0.057796326 0.26206765
0001e0 fc d1 da bb 7a a4 d5 bd 91 09 10 3c 0e 69 f1 3d
       -0.006677864 -0.10431762 0.008791343 0.11787616
0001f0 0f af 28 bd b9 a8 e1 bd d4 26 c4 3d 2c 28 93 be
       -0.041182574 -0.110185094 0.095777184 -0.28741586
000200 b2 bc 50 be 54 5d d5 be 0c 11 7d bd 5d 18 5c bd
       -0.20384482 -0.41672766 -0.061783835 -0.053734172
000210 ec 8b 3a 3e f3 60 46 be f4 82 e3 bd c1 e5 d6 3d
       0.18217438 -0.1937292 -0.11108962 0.10493041
000220 3e 8e 06 3e 29 70 6d 3b 66 f8 14 3e d4 40 1e 3e
       0.13140199 0.0036230183 0.14547881 0.15454417
000230 c4 9a 15 3e 86 49 3c bd ad cd 44 bd de 8e 38 3d
       0.1460982 -0.045968555 -0.04804771 0.045058124
000240 b9 68 ec 3e 28 4c cb 3d e5 19 4b be 53 c5 7d 3e
       0.46173647 0.09926635 -0.19834097 0.24782304
000250 88 d0 52 3e c9 ca 0c 3e ce 00 13 be dc 58 41 3e
       0.20587361 0.13749231 -0.14355776 0.18881553
000260 9f d8 ff 3d 3f 51 5c be 79 7e 64 be 43 c5 1b 3e
       0.12492489 -0.21515368 -0.2231387 0.15211968
000270 e1 26 97 ba 0f ba d9 bd 46 f3 23 bd 41 c6 c9 be
       -0.0011531973 -0.10631191 -0.040026926 -0.39409068
000280 69 55 3c be 83 aa 3e be ca b8 14 be d0 f6 73 be
       -0.18391956 -0.18619733 -0.14523616 -0.2382462
000290 54 f6 cf bd af 20 07 be 85 88 0b be 89 6f dc 3d
       -0.10154405 -0.13196062 -0.13626297 0.10763461
0002a0 cc e0 f3 3d 23 2e 90 bd 68 a6 69 3e 87 b1 0e 3e
       0.11908111 -0.0704005 0.22817385 0.13934909
0002b0 53 61 80 bc 6c 09 bf 3d 24 5b ff 3d 99 52 03 3d
       -0.015671408 0.09327969 0.124685556 0.032061193
0002c0 9c d7 a1 3e 3c f9 2c 3e 88 35 04 be 77 a5 6e 3e
       0.3160981 0.1689195 -0.12911046 0.23305307
0002d0 d2 7f 97 3e d9 e9 7a 3d a8 41 a4 be 57 20 e7 3d
       0.29589707 0.06125817 -0.32081342 0.11285465
0002e0 cb 55 27 bd d1 e8 17 be 95 5c af be 34 fa 46 3e
       -0.040853303 -0.14834906 -0.34250322 0.19431382
0002f0 2c 1e dc bd a8 b2 94 3d d1 57 85 3e d9 f6 3f be
       -0.10747942 0.072606385 0.2604356 -0.18746509
000300 df 22 72 bd 4e 51 93 be ce 6d 87 bd a9 d6 c8 be
       -0.059115287 -0.28772968 -0.066127405 -0.39226273
000310 82 80 9f 3c 7d 39 da ba 03 c2 37 be 99 46 60 3e
       0.019470457 -0.0016649213 -0.17945103 0.21901931
000320 f1 cb 2e 3e 7a a0 cc 3d 64 f9 db 3d 90 7e 2d 3e
       0.17069985 0.09991546 0.10740927 0.16942811
000330 77 67 52 3d 15 89 8c bc 2a 0b eb 3c 22 3f 0e 3e
       0.051368203 -0.01715521 0.028691847 0.13891271
000340 33 a9 ab 3e ee fa d3 bc 14 65 71 be a0 80 a4 3e
       0.33527526 -0.025876489 -0.23573714 0.32129383
000350 60 87 a2 3e 00 3a fa 3d 80 c9 3f be 9c 03 e7 3d
       0.31743908 0.12218094 -0.1872921 0.11279985
000360 99 8f 6a 3d 8a b9 38 be 41 cc 84 be 51 7e ca 3e
       0.05726585 -0.18039528 -0.25937083 0.39549497
000370 06 47 85 bd 64 d2 25 3e 85 05 35 3e 18 e5 03 be
       -0.06507687 0.16193539 0.17677887 -0.12880361
000380 22 f3 ae bd 02 48 07 be 4c ab 0e bd 45 5a 34 3e
       -0.08542468 -0.13211063 -0.03483133 0.1761256
000390 08 7b e0 3d aa f2 d4 3d 39 06 2a 3e da 0c 59 3c
       0.10960966 0.10397847 0.16603936 0.013247693
0003a0 f3 51 8b 3e 70 22 a5 bc 79 c9 6a bd 37 eb 92 3e
       0.2721096 -0.020158023 -0.057321046 0.2869508
0003b0 6b 23 11 3e a7 1d 03 3d fa 3a b1 bd c7 ae 36 3e
       0.14173667 0.0320107 -0.08653827 0.1784011
0003c0 9c 8c de bd 0c a1 1a 3d 4c de e8 3c fc 54 73 3e
       -0.10866663 0.037751243 0.028426312 0.23762888
0003d0 5c 3d b3 3e 04 b3 ac 3d 4a 40 d0 be 4f 64 db 3d
       0.3500775 0.08432582 -0.4067405 0.10712492
0003e0 a7 81 18 3e b8 6e 08 3e 85 16 ac 3e 65 26 a9 3e
       0.14893208 0.13323486 0.3361093 0.33037105
0003f0 fa 7c 37 bd 1c e5 62 be 13 8a 05 3d ff 86 8d bd
       -0.04479692 -0.22157711 0.03260238 -0.06910514

context_transformer_0/ffn_layer_1/intermediate_dense/einsum/Einsum;context_transformer_0/ffn_layer_1/intermediate_dense/Relu;context_transformer_0/ffn_layer_1/intermediate_dense/add f4 [32]
000000 18 7d 2c be 5e 88 04 be 39 f7 67 3c 53 f9 0b be
       -0.16844594 -0.12942645 0.014158064 -0.13669328
000010 12 3b 51 3e 1f d6 20 be e0 0f 29 bd 95 59 62 bd
       0.2043269 -0.1570668 -0.041274905 -0.055261213
000020 70 09 ea be b0 ce 1e be 9d d7 b4 be d2 ea 71 bc
       -0.45710325 -0.15508533 -0.3532075 -0.014765458
000030 3f e6 58 3d ac 54 de be dc 80 63 ba 6d dc 7f be
       0.052953955 -0.43423975 -0.00086785643 -0.2498643
000040 06 bb 7f bd 2a f2 ae be 92 bd 33 3e e0 1b 0c 3e
       -0.06243422 -0.34169132 0.17552784 0.13682508
000050 92 69 7a be c3 58 67 be 26 4c e2 3c 69 f3 81 be
       -0.24454334 -0.22592454 0.027624201 -0.2538102
000060 f5 d4 c4 bc d5 74 d8 be bd 52 11 be 90 01 a3 be
       -0.024027327 -0.42276636 -0.14191718 -0.3183713
000070 f6 aa 1e be a1 b7 e1 bd fe b9 3f be 20 a7 b9 bd
       -0.15494904 -0.110213526 -0.18723294 -0.0906508

context_transformer_0/ffn_layer_0/norm/mul;context_transformer_0/ffn_layer_0/norm/add;context_transformer_0/ffn_layer_1/intermediate_dense/einsum/Einsum;context_transformer_0/ffn_layer_1/intermediate_dense/Relu;context_transformer_0/ffn_layer_1/intermediate_dense/add f4 [32, 32]
000000 b2 7a 2c 3d fe a9 8f be bb 3e fa bd 4e 68 e2 3d
       0.0421092 -0.2805938 -0.12218996 0.11055051
000010 dd b8 bb 3e 06 36 a6 3d ad 64 20 be 4d a6 00 3e
       0.36664477 0.08115773 -0.15663405 0.12563439
000020 bf 14 a6 3e 47 04 1b 3c 07 72 0e be 15 2b 4d 3d
       0.32437703 0.009461469 -0.13910685 0.050089914
000030 9e 5a c9 be 40 33 36 be 1d 1e 98 bc 04 9c 80 3d
       -0.39326948 -0.17792988 -0.018569047 0.062797576
000040 11 31 b9 3d 9f e9 d8 3d f4 2d ff 3d da e0 f8 bd
       0.09042562 0.10591435 0.12459937 -0.12152262
000050 07 aa e3 3d c5 d2 71 be 11 bf 78 3e b3 8d f6 bd
       0.111164145 -0.23615558 0.24291636 -0.12038746
000060 e9 46 7d 3d e9 c7 46 bd 80 58 6d 3e be 22 37 bc
       0.061835203 -0.048530493 0.23178291 -0.011177717
000070 58 bd c0 3c cd 90 38 be dc 25 86 bd 4f f4 95 3d
       0.023527786 -0.18023987 -0.0655019 0.07321989
000080 fc 9c c2 bb 5f a6 d1 bb 6d ff 0f bd 5d 16 92 bc
       -0.005939124 -0.006398007 -0.035155702 -0.01783293
000090 63 c8 d2 3c 82 2d a9 bc 78 b3 32 bd e5 e3 fb ba
       0.025730317 -0.020651583 -0.043628186 -0.0019217698
0000a0 2a 9e df 3c 9c 09 26 bb c2 d8 0c 3c 08 b5 94 3c
       0.027297098 -0.0025335317 0.008596601 0.018152729
0000b0 f5 de 1f bc e8 63 6f 3c f5 51 5c 3b c5 0f c6 bc
       -0.009757747 0.014611222 0.0033618186 -0.024177441
0000c0 cc b4 03 3d cb 32 c7 39 c3 61 28 bd df a0 ab 3b
       0.032154843 0.00037994082 -0.041108858 0.005237683
0000d0 5a 2a 65 3d 1e 75 f9 3c 79 5a 81 bc 5c 1d d0 3c
       0.055948593 0.030451354 -0.015790211 0.025404625
0000e0 66 03 d0 3c 7a 12 c8 3a e2 c6 70 3b 34 62 a0 3c
       0.025392246 0.0015264296 0.0036739637 0.019578077
0000f0 3e ed 8c bb eb 00 34 3c ac 0d 28 3d c3 10 59 3a
       -0.0043007424 0.010986547 0.041028664 0.0008280391
000100 58 2a 53 3e 73 1d a7 bd 94 7d f6 3d 75 29 0c 3d
       0.20621622 -0.08159914 0.12035671 0.034219224
000110 9b b3 9a bc 9a 0c cf 3d a8 11 4b 3e b1 96 93 3e
       -0.01888447 0.101098254 0.19830954 0.28825906
000120 ad 84 2e 3f 65 d6 92 3c c7 41 2d be fd c3 46 3d
       0.681712 0.017924497 -0.16919623 0.048526753
000130 ad 35 80 be 7f 3b 26 3e 50 da 2c 3d ba 0b ab 3e
       -0.2504095 0.16233633 0.042200387 0.33407384
000140 fd 55 3c 3d 76 0c 06 be 85 08 62 3e b1 47 8c 3e
       0.045980442 -0.13090691 0.22073562 0.27398446
000150 fb 95 e8 bc ee e3 3c 3c ae 3a 9e be a4 31 3c be
       -0.028391829 0.011528952 -0.30904144 -0.18378311
000160 1f 3e cc 3d 0f 83 04 3e c2 b0 f0 3c 5a 5e 1d 3d
       0.09972786 0.1294062 0.02938116 0.03842006
000170 41 6d 59 bc 55 d8 5d bb 79 df 37 be de 83 d7 3d
       -0.013270677 -0.0033850868 -0.17956342 0.105231985
000180 4b 7e 53 3d 2f a6 1d be 56 bc 08 bb e8 94 d7 3c
       0.051634114 -0.15395425 -0.002086421 0.026316121
000190 18 34 01 3d 84 6a ab bd df 0a 78 bd 9d b4 a0 bd
       0.03154382 -0.083699256 -0.060557242 -0.07846949
0001a0 c6 ff a4 3e 3e b8 e8 3d 28 22 e8 bd 00 97 6b bd
       0.3222639 0.113632664 -0.1133464 -0.05751705
0001b0 55 6c d7 be bf b0 78 bd a8 80 1b 3e 63 99 ec bc
       -0.42074838 -0.060715433 0.15185797 -0.028881734
0001c0 e4 a7 e8 3d 1d 7b 98 3d 59 e4 80 3d 1e b6 fe bc
       0.113601476 0.07445357 0.06293554 -0.0310927
0001d0 d5 38 cb bb e2 a5 89 bd 63 71 3b 3d ca 28 51 3d
       -0.0062018433 -0.06721093 0.04576243 0.05106429
0001e0 c3 a4 04 bd 82 55 ee 3d c0 07 8f 3e 6c 0a 88 be
       -0.03238369 0.11637403 0.279356 -0.2657045
0001f0 33 90 f6 bc 89 3e 98 be 84 43 d9 bd 42 e9 89 3d
       -0.030098056 -0.2973521 -0.10608581 0.067339435
000200 cd 87 e0 3d 2f f1 9d bd fb 8b fb 3d 94 48 c9 3e
       0.10963402 -0.07712018 0.122825585 0.39313185
000210 42 52 8a 3d 60 3f 9a 3d b4 da f5 3d 90 a9 8e 3e
       0.06753971 0.07531619 0.12004605 0.2786374
000220 af 27 bd bd fc 50 44 be a5 59 80 bd 39 bc 3e 3e
       -0.09236085 -0.19171518 -0.06267098 0.18626489
000230 d5 bd 90 3e e3 a7 19 3e 74 85 24 bd 0a 9c 2a 3e
       0.2826983 0.1500545 -0.040166333 0.16661087
000240 15 cc d9 bc 24 3f 75 bd e4 47 62 be 12 e2 0f 3f
       -0.026586572 -0.05987467 -0.22097737 0.5620433
000250 65 08 c3 3b cc 97 05 3e 39 a2 d4 be 08 a8 bb bd
       0.0059519284 0.13046187 -0.41530016 -0.09162909
000260 c3 0e 2b 3e 56 53 d8 bd b3 2f 8f bd fa 1c 57 3e
       0.1670485 -0.1056277 -0.0699152 0.21007147
000270 5e d4 09 3e 10 33 fa 3d 9d d0 f9 bd 77 11 c2 3e
       0.13459918 0.12216771 -0.12197993 0.3790395
000280 9f 9b f6 bc a0 ae d4 bc e5 71 57 3b f9 6e ed b9
       -0.030103503 -0.025962174 0.0032874283 -0.00045286844
000290 f9 ed 98 3c ec fc e7 bc df 14 32 bc b5 bb e9 3c
       0.018668162 -0.028318845 -0.010869234 0.028531888
0002a0 54 d6 63 3d a0 18 43 bc 8a d0 a8 bc 00 0c f6 bb
       0.05562432 -0.0119077265 -0.020607252 -0.0075087547
0002b0 cc 34 7a bc c8 b8 36 3c a9 b1 57 3d f1 82 c2 38
       -0.015271377 0.011152454 0.052659664 9.2750306e-05
0002c0 af 91 3a 3d d7 e0 3e 3d 06 57 2b 3c 1d 1c 39 3c
       0.04554909 0.046601143 0.01045776 0.011298207
0002d0 70 1f 25 3d 14 9e d6 bc b8 00 f1 3c 1a fa 1e 3d
       0.040313184 -0.026198424 0.029419288 0.038812734
0002e0 a7 b3 41 bc 4b 43 8e bb a6 16 ae 3c b0 8b de 3c
       -0.011822618 -0.004341518 0.021251034 0.027166218
0002f0 e4 e9 37 bd 9e a5 5c 3d a3 eb a0 bb 79 5f 49 3c
       -0.04490079 0.053868882 -0.0049109026 0.012290829
000300 b2 ec 0d bd c0 80 86 be d3 61 86 be e1 b7 41 3e
       -0.03464956 -0.26270103 -0.2624651 0.189178
000310 71 f2 d4 3e 48 56 99 bd 83 ea 24 3c 26 ea 08 3e
       0.41591218 -0.0748716 0.010065678 0.1337057
000320 f5 3f ce 3e 51 c6 40 be 84 48 08 bc 6e aa 64 bd
       0.4028317 -0.18825652 -0.00831807 -0.055826597
000330 26 b0 3a be 7f 2e cc 3d 14 cf 9e 3d b8 c2 a9 be
       -0.18231258 0.09969806 0.07754341 -0.3315637
000340 22 f4 af bd d9 8d d0 3e ea 6e 61 3e f5 ad 74 bd
       -0.085914865 0.4073322 0.22014967 -0.05973621
000350 fa 6b 22 3e 63 25 00 be 67 75 0b 3e f4 4f a5 3b
       0.15861502 -0.12514262 0.13619004 0.0050449315
000360 e8 f9 11 3d e1 4e 61 3c 30 4e 21 3e 22 12 d0 3c
       0.03563872 0.013751716 0.15752482 0.025399271
000370 f8 af 75 3d 92 6b 11 be a8 fc 24 bd 30 e3 40 3e
       0.05998227 -0.14201191 -0.040280014 0.18836665
000380 95 b0 4a be 1e 69 09 3e d5 75 6e 3e 5e 8b 53 3e
       -0.19793923 0.13419005 0.23287137 0.20658633
000390 c7 71 c5 3e d2 80 0a 3e 11 f6 c7 3c f7 a7 ac bd
       0.38563368 0.13525704 0.024409326 -0.08430474
0003a0 be d1 59 bd 24 37 0a bf e7 bc 91 3d 0d 19 22 be
       -0.05317854 -0.5399039 0.071161084 -0.15829869
0003b0 8f 8a 28 be 45 79 86 bd 22 cf c3 bd 87 78 c7 bd
       -0.16459106 -0.06566099 -0.09560992 -0.09739786
0003c0 1a f2 6e 3e 80 95 cf bc 0c c4 ad be 4a 75 15 be
       0.23334542 -0.025339842 -0.33938634 -0.14595523
0003d0 4d 19 0f 3e 6f 09 f2 bd 98 25 1e bd 8b ea 1f be
       0.13974495 -0.118182056 -0.03861007 -0.15616815
0003e0 41 9d fa 3d 0b e6 b0 be 93 ca 08 be 30 84 a4 bc
       0.12237025 -0.3455051 -0.13358526 -0.020082563
0003f0 83 48 31 3e 67 2a 52 be f2 16 4e bd 2a 6c 8b be
       0.17312817 -0.20523988 -0.05031485 -0.2723096

context_transformer_0/ffn_layer_2/intermediate_dense/einsum/Einsum;context_transformer_0/ffn_layer_2/intermediate_dense/Relu;context_transformer_0/ffn_layer_2/intermediate_dense/add f4 [32]
000000 0f 70 b3 bd 7b 65 be be 34 4b 06 be ff f9 51 be
       -0.08761608 -0.37186798 -0.13114625 -0.20505522
000010 be 9c 0a bf 01 93 51 be bf 71 0e be d6 3d 1b 3e
       -0.5414542 -0.20466234 -0.13910578 0.15160307
000020 5f 35 c3 be 7d dd 72 be 87 b5 39 bd f7 3d 25 be
       -0.38126656 -0.23717304 -0.045339134 -0.16136919
000030 f2 5a e4 bd c1 54 44 be fb 7c 68 be 03 ff 05 be
       -0.11150159 -0.19172956 -0.22703926 -0.1308556
000040 02 11 e9 be 9d 96 1a be 5c 53 44 be c4 9f 58 be
       -0.45520788 -0.15096517 -0.19172424 -0.21154696
000050 8b d5 b4 be 0f ac 8e be 97 df 09 be 90 90 5c bd
       -0.3531917 -0.27865645 -0.13464199 -0.053848803
000060 d5 ef 26 be 5f 99 04 be c2 8b 84 be 2c f0 95 3c
       -0.16302426 -0.12949131 -0.25887877 0.018303
000070 39 0e 9f be d7 39 1a be 8d ac 87 be ce 62 48 bd
       -0.3106554 -0.15061127 -0.26498833 -0.048922352
