.dart_tool/chrome-device/Default/optimization_guide_prediction_model_downloads/c479beef-b837-4b51-98db-1d58f349a6b4/model.tflite (tflite, 410364 bytes, 166 tensors)

context_transformer_0/bottleneck_input/norm/add f4 [32]
000000 be 65 d7 bd e4 ac da 3d ed a5 0e 3d 15 65 97 bc
       -0.10517453 0.106775075 0.034826208 -0.018480817
000010 cc 99 7e 3b 16 58 d2 bd 7e 27 fe bd ae b0 62 be
       0.0038848994 -0.10270707 -0.12409876 -0.2213771
000020 ad 5a 8b 3d ea 1d d8 bd 30 46 34 3d fc c0 54 be
       0.068044044 -0.10552581 0.04401225 -0.20776743
000030 c8 38 63 3d 16 64 a4 bc 7e 7f 8e bd a6 76 1c 3c
       0.055474073 -0.020067256 -0.06957911 0.009549772
000040 14 32 13 be 5b 25 24 be 5c 5f 06 3d 36 ad c6 bd
       -0.14374572 -0.16029875 0.032805786 -0.09701006
000050 d9 49 c4 3d 06 f2 c6 3c 52 e5 5d be 54 68 54 bd
       0.09584398 0.024285328 -0.2166951 -0.051857308
000060 46 4e ad 3b 94 c7 ba 3d 8a c6 8f bc 8c a7 48 3d
       0.005288872 0.09120098 -0.017550725 0.04898791
000070 ee 9e 47 3d 2e 9e 45 be 2c 5b 15 3d 35 a8 9b bd
       0.04873555 -0.19298622 0.0364639 -0.07600442

context_transformer_1/bottleneck_input/norm/add f4 [32]
000000 e9 cf 37 be 24 42 c6 3b f5 b6 93 3d da 88 3d bd
       -0.17950405 0.006050365 0.07212631 -0.04627309
000010 c2 26 1b 3e b1 5d 10 bd 88 08 27 3e 63 d9 ba 3d
       0.15151504 -0.0352456 0.16311848 0.091234945
000020 f6 ab 32 be 87 cb ab 3c 84 31 3b 3e a2 17 18 3d
       -0.1744841 0.020971073 0.18280607 0.037131913
000030 20 37 32 3d 34 7e 07 be 95 0a 0b be 42 6b 15 3d
       0.043509603 -0.13231736 -0.13578255 0.036479242
000040 e4 7a 50 bd 68 2b fc bd c4 1b d2 3b fd 47 39 3d
       -0.050898448 -0.123129666 0.0064120013 0.04523467
000050 28 35 51 3c 3e 9a c6 bc e6 ff d1 bd 5f 77 e2 3d
       0.012769021 -0.02424347 -0.10253887 0.110579245
000060 40 58 ac 3d b5 17 86 be 22 c8 31 3d d4 38 38 3e
       0.0841527 -0.26189962 0.043403752 0.17990428
000070 06 a8 1e bb 73 14 35 bd 28 5c 77 3e d2 5d c6 3c
       -0.0024209036 -0.044208955 0.24156249 0.024214659

mention_transformer_0/bottleneck_input/norm/add f4 [32]
000000 c9 c7 12 3e 0f 7f a0 3c d0 03 0b 3b f4 f6 17 bd
       0.14334024 0.019591836 0.002121199 -0.037100747
000010 36 f6 7a 3e 62 c4 c9 3d 62 fb 71 bd 92 ca b1 3c
       0.24507985 0.0985191 -0.059077628 0.021703038
000020 34 87 2b 3e c8 e4 31 3d 98 55 03 be 28 bc 1a 3e
       0.16750795 0.043431073 -0.1282562 0.15110838
000030 e3 e5 ce bd ba 9c 47 3d b0 21 05 bd ab 8d 07 be
       -0.10102441 0.04873345 -0.03250283 -0.13237636
000040 ae 75 38 bd 58 65 e4 3c c6 86 74 3d 4a d1 26 3e
       -0.045034103 0.027880356 0.059698842 0.16290775
000050 6c b5 38 3e 87 32 00 3e 25 ee d4 bd c4 4f 8b 3d
       0.18037957 0.12519275 -0.10396985 0.068023235
000060 4e f0 0d bd 74 16 eb 3d 3e 22 2f be b3 c2 a6 bd
       -0.034653 0.11478892 -0.17102906 -0.08142605
000070 23 5e bf 3d c4 7c 09 be 79 c6 c4 3d 50 fd 84 3d
       0.09344127 -0.134265 0.09608168 0.06493628

mention_transformer_1/bottleneck_input/norm/add f4 [32]
000000 99 da da 3e 30 6e d4 3b c3 e9 04 3e 9e 51 9d 3e
       0.42744902 0.006482862 0.12979798 0.3072633
000010 88 fa b2 3c 9f 8f 87 3e 1e 25 12 3e d8 ec e1 3e
       0.021847978 0.26476762 0.14271972 0.4412601
000020 54 0a 50 bd c5 d8 5f be 28 74 f0 bc 06 e8 34 3e
       -0.0507911 -0.21860035 -0.029352263 0.17666635
000030 da d1 b9 be 38 3e 96 bd 6a 07 91 3e ca 67 ce 3e
       -0.36292917 -0.07336086 0.2832597 0.4031356
000040 d9 f7 b0 bd 64 e5 d1 bd 4b 53 41 bd 80 0a 83 be
       -0.08641023 -0.10248831 -0.047198575 -0.25593948
000050 5a 5f b7 3d 0e c2 09 be 45 c7 82 3e b5 16 83 be
       0.08953734 -0.13452932 0.25542656 -0.25603262
000060 e1 99 82 3e e8 ed 57 be 82 38 df bd 70 b6 b6 3e
       0.25508025 -0.21086848 -0.1089945 0.35686064
000070 e6 0a d3 bd 54 24 76 bd 54 6b b3 3e 1f 6d 9d 3d
       -0.10304813 -0.06009324 0.35042822 0.07686829

context_transformer_0/attention/value/add;context_transformer_0/attention/value/einsum/Einsum;context_transformer_0/attention/value/add/ReadVariableOp/resource f4 [32]
000000 c6 d1 28 bd e1 8c d5 3b 57 23 95 3d 6a 32 86 3d
       -0.04121568 0.006517038 0.07282131 0.065525845
000010 3f 3e 36 3d e8 d2 ab 3c 03 02 b6 bd 12 99 24 3d
       0.044492956 0.020974591 -0.088871025 0.04018504
000020 4f ea ad bc 54 6b 5a bd 32 36 7b b9 14 f5 f6 3c
       -0.021229891 -0.053325012 -0.00023957415 0.03014616
000030 57 9b 97 3d e1 5d 9b bc af 2e ee 3c 8a 42 57 bb
       0.074026756 -0.018965663 0.029074995 -0.0032846057
000040 9c 93 41 3d f3 ed 00 3d 47 1f 4e 3b 95 d3 a6 bc
       0.047259912 0.031476926 0.0031451748 -0.020364562
000050 f5 9a 22 bd 59 83 19 bd 75 a5 90 3b 91 30 fd 3c
       -0.03969856 -0.03747878 0.0044142553 0.030906947
000060 77 cf 52 3d f1 dc ae 3c 1f 80 b2 3c cd 41 de 3c
       0.051467385 0.021345587 0.021789609 0.027130986
000070 9b ef 54 bd 03 8e 51 bd aa 1d 51 3b 38 aa 2f 3d
       -0.051986318 -0.051160824 0.003190855 0.042886943

context_transformer_0/bottleneck_input/norm/mul f4 [32, 32]
000000 95 ad 04 3f 7d ae ed 3d e4 ee 73 be 3c b1 b5 bd
       0.51827365 0.116055466 -0.23821598 -0.088716954
000010 0a 92 89 3e 0e d2 e6 3e 94 a3 3c 3e cd e5 aa be
       0.2686923 0.45082134 0.18421775 -0.3337845
000020 98 02 04 3f 4b f6 0a bd 29 e2 17 bf 8f 5e fb bc
       0.5156646 -0.03392629 -0.5932947 -0.030684737
000030 2a 34 d2 be 5d a0 d5 3e 36 06 6e bd 86 70 3b 3f
       -0.41055423 0.4172391 -0.058111392 0.7321857
000040 68 fd 22 bd 8b 09 e7 3e d4 38 50 3e 11 42 bd 3e
       -0.03979245 0.45124468 0.20334178 0.36964467
000050 31 74 3e 3d d8 08 56 be 8e 18 65 3e eb 9b ac bd
       0.046497528 -0.20901811 0.22372648 -0.084281765
000060 42 66 84 3e 61 cc f8 3e 4a 49 47 bd 16 b0 b2 3a
       0.25859267 0.4859343 -0.04865388 0.00136328
000070 ce 02 f0 bd 25 6a 06 be 6d 3c 8d 3c c1 30 51 bc
       -0.11719285 -0.13126428 0.017240727 -0.0127679715
000080 99 49 a5 3e 55 e9 d8 3d 0a 37 8d 3d 18 c6 8c 3d
       0.32282713 0.105913796 0.068952635 0.06873721
000090 6c 76 a5 bd a0 9b 8a be 7d 1f 0a bf 33 a6 8b 3e
       -0.08079228 -0.27071857 -0.539543 0.27275237
0000a0 b7 1f 44 3d a0 29 e1 3d 14 c1 4a 3e 99 5d 8d 3d
       0.047881808 0.109942675 0.19800216 0.06902618
0000b0 34 cf 18 be 08 fe c7 3d 11 aa 26 be 14 63 5a be
       -0.14922792 0.097652495 -0.16275813 -0.21326858
0000c0 af 33 b9 bd 0f ce b8 3c f2 64 a9 3d d9 9d e1 3d
       -0.09043061 0.022559194 0.08271207 0.11016435
0000d0 19 d4 f1 bc 36 29 4d be d0 39 be 3d 26 78 78 3d
       -0.029520081 -0.20035252 0.092883706 0.060661457
0000e0 84 cf e9 bd 8e 57 e7 3c 02 35 b3 be f9 ad 68 3d
       -0.114165336 0.028239992 -0.3500138 0.05680654
0000f0 38 a8 ca 3d 24 bb 70 bd 9e 06 4a 3d e7 3d e2 3d
       0.098953664 -0.05877222 0.049322717 0.11046963
000100 18 2d 83 3e e2 a7 85 3e 83 1e 25 be ef e5 14 be
       0.2562034 0.26104647 -0.1612492 -0.14540838
000110 35 5b fe be f2 04 a3 3e 5b 2b bb 3e 53 b3 5f 3e
       -0.4967896 0.3183971 0.36556515 0.2184575
000120 dc 63 57 3d 3a be 86 3e eb 3e 71 3e be 69 f6 3e
       0.052585468 0.26317006 0.23559158 0.4812755
000130 66 d8 2a bc 63 1c 9b 3d a8 eb 5b be bc d4 19 3e
       -0.01042757 0.07573774 -0.21476614 0.15022558
000140 2f 47 e3 be 2e 17 77 3e 24 65 37 be 96 e1 02 3e
       -0.44390246 0.24129936 -0.17909676 0.12781367
000150 ab 7b 7c bd 4d 50 08 bd f9 7f b1 be 39 61 a7 3d
       -0.061641376 -0.033279706 -0.34667948 0.081728406
000160 7b 50 9e bd 1f 63 97 3c 65 cd c8 be ca 53 86 3d
       -0.07730194 0.018479882 -0.39219204 0.0655895
000170 ea 71 d5 3e 67 b7 0e 3e c0 f4 5d 3e c6 c5 0c 3e
       0.41688472 0.1393715 0.21675396 0.1374732
000180 5d e1 0f bd d1 89 c5 3e 35 3e 55 bd 4b 19 94 3e
       -0.035127033 0.38581708 -0.05206128 0.28925547
000190 9e 69 8c be 4f 3d 0b 3e e2 7a f7 bd ac c4 f0 3d
       -0.2742433 0.13597606 -0.12083985 0.11756262
0001a0 65 62 a6 3e da 80 33 3d 6e 8a 44 be ef 63 ee bd
       0.32496944 0.043824054 -0.19193432 -0.116401546
0001b0 dc d3 05 3e 9e d6 2f bd a3 ba 62 be 46 9e a5 3c
       0.13069099 -0.042929284 -0.22141509 0.020217072
0001c0 a7 98 26 3d a8 f4 57 be 25 05 0c 3d 79 9f 8a bd
       0.040672924 -0.21089423 0.034184594 -0.06768698
0001d0 33 1a 12 be 43 bf 68 bd d6 31 17 3e 3a 7a 88 be
       -0.14267807 -0.056823026 0.14765105 -0.2665575
0001e0 40 3d 3c 3c a7 c3 60 3d 1d 9f c7 bd c3 8d 82 3d
       0.0114892125 0.05487409 -0.09747145 0.06374695
0001f0 d1 fc 8c 3d 6f 8b 9b bd b2 56 08 3b 17 11 51 be
       0.068841584 -0.07594954 0.0020803628 -0.20416676
000200 88 d0 a8 bc 04 88 3d be f7 9d 2c be 32 a4 a9 be
       -0.020607248 -0.18508917 -0.16857134 -0.33133084
000210 01 69 75 3d 0a 95 b6 be a6 95 1f bf c5 6c a3 3d
       0.059914593 -0.35660583 -0.6233772 0.079797305
000220 b9 94 78 be 87 93 2b bf 6d 54 83 be a4 2d 5c be
       -0.24275483 -0.67021984 -0.2565035 -0.21501786
000230 b6 c1 00 3e d2 a3 6d 3e 1f 78 81 3e f5 ad b0 be
       0.12573895 0.23207024 0.25286958 -0.3450772
000240 f7 e6 15 bd 6c 3a a2 3e b3 ba c5 3d 29 2c 8b be
       -0.03659722 0.31685197 0.09654751 -0.2718213
000250 48 98 c8 be 51 1b 41 3e 4a d8 7c be 35 fc 98 3e
       -0.3917868 0.18858077 -0.24691883 0.2987992
000260 75 4a bc be 10 c1 14 3e 30 1e a6 bd b1 b9 9f be
       -0.36775556 0.14526772 -0.081112266 -0.3119636
000270 4c 0e 46 3e 0b 07 90 3e 5d 37 c9 bd 08 86 91 3e
       0.19341391 0.28130373 -0.09825013 0.2842257
000280 dd 88 e2 3e 8a ff 7d be ff 6a 8a 3e da 48 9d be
       0.44245043 -0.24804512 0.27034757 -0.30719644
000290 39 89 99 3e 6b 93 e8 3d 43 67 28 bd 24 95 53 be
       0.29987505 0.11356243 -0.041114103 -0.20662361
0002a0 00 46 92 bd 27 0a 3f be 0d 37 df bd 83 b6 4d be
       -0.07142258 -0.18656217 -0.10899172 -0.20089154
0002b0 de 17 cf bd 1c af 60 bd 2d 26 90 3e 02 3c 50 3e
       -0.10111974 -0.054854497 0.28154126 0.20335391
0002c0 2d df a1 be 49 e3 27 3e b3 95 54 be 89 ca 06 be
       -0.31615582 0.16395296 -0.2076023 -0.13163199
0002d0 a6 2a 2c 3d dd 58 d2 3d 18 08 14 bd 31 24 a1 be
       0.04203286 0.102708556 -0.03614053 -0.31472924
0002e0 01 ea 7f 3e 1f a4 03 be 57 08 0d be 30 64 ad 3e
       0.24991609 -0.12855576 -0.13772713 0.338655
0002f0 22 0d 89 be 9c 34 60 3e 39 a6 20 3e e4 7f 3f be
       -0.26767832 0.21895069 0.15688409 -0.1870113
000300 b7 e1 f8 3e 7d 89 16 3f 33 98 1a 3f 79 4c 0a 3e
       0.48609707 0.5880354 0.6038849 0.13505735
000310 23 b5 56 bf e8 28 37 3d a9 94 2e 3c be a3 c1 be
       -0.8387014 0.044716746 0.0106555605 -0.37820238
000320 36 06 8c be 70 53 ab 3e 85 68 ae 3e a3 1a d9 3e
       -0.2734849 0.33462095 0.34064117 0.42403135
000330 b1 22 fb 3d 69 c8 2d 3e c2 4e 16 be 33 fd 1d be
       0.12262476 0.16970982 -0.14678481 -0.15428619
000340 cd 3f 1e be c4 e9 22 bf 77 52 d0 3d c1 e7 ea 3e
       -0.15454026 -0.6363795 0.10171979 0.4587994
000350 f7 05 80 3e 8c af 33 bf f7 f4 3e 3e 49 53 f3 bd
       0.2500455 -0.7018974 0.18648134 -0.1188112
000360 b3 9d 70 3e e0 a1 e5 bd 44 43 13 bf 24 43 0f 3f
       0.23497657 -0.11212516 -0.57524514 0.55961823
000370 c9 68 2b bd af 52 85 bd 52 11 9a 3f 83 2a 85 3e
       -0.041847978 -0.06509911 1.2036536 0.26008996
000380 06 fd 36 bd e8 a2 15 bf 32 db 66 bd 37 26 8c 3d
       -0.044674896 -0.584517 -0.056361385 0.068432264
000390 92 a7 c9 3c 84 d5 0e bc 58 44 c0 3d 43 37 65 3e
       0.024616037 -0.008717898 0.093880355 0.22384362
0003a0 d0 ad 39 3d 51 b7 61 be 84 b1 4d be a2 ab e2 3d
       0.045331776 -0.22042586 -0.20087248 0.110678926
0003b0 d5 15 29 3e 10 36 c3 be 35 22 36 be 8f 58 90 bd
       0.16512235 -0.38127184 -0.17786486 -0.07048141
0003c0 24 19 9e bb c0 c6 88 3d d8 b0 7e 3e aa c3 45 3e
       -0.0048247743 0.066785336 0.24872148 0.19312921
0003d0 df b0 b4 be b2 38 93 3e 2b 05 06 bc 75 e1 29 bd
       -0.35291192 0.28754193 -0.008179943 -0.04147478
0003e0 92 5a 98 3c 37 be 3b bd e7 75 45 bd c4 f7 6f 3e
       0.018597875 -0.0458357 -0.048208144 0.23434359
0003f0 7b 99 96 bd 09 09 94 3e 4d 0f ce 3d 1c 6d b1 bd
       -0.07353493 0.28913143 0.10061512 -0.08663389

context_transformer_0/kq_shared_bottleneck/norm/mul;context_transformer_0/kq_shared_bottleneck/norm/add;context_transformer_0/attention/key/einsum/Einsum;context_transformer_0/attention/key/add;context_transformer_0/attention/value/einsum/Einsum;context_transformer_0/attention/key/add/ReadVariableOp/resource f4 [32]
000000 96 11 63 bd 64 82 8a 3d b1 77 69 bd 0b 48 a1 bd
       -0.055436693 0.06763151 -0.056998912 -0.07875069
000010 4d 65 71 3d 14 94 80 bd 9e f1 a8 bd bf c4 8e bd
       0.0589345 -0.06278244 -0.0824921 -0.0697112
000020 ab 7a ff bd 21 c0 cd 3d d9 ea d9 3d df 8d f7 bd
       -0.12474569 0.10046411 0.10640497 -0.12087607
000030 41 43 da 3d 92 fe fe bd 42 56 c5 3d 34 4c 09 be
       0.10657359 -0.12450899 0.09635593 -0.13407975
000040 2e 32 24 3b 7a 8b 86 3c 02 2f 01 38 4d 14 a7 3b
       0.0025054323 0.01642393 3.0799776e-05 0.0050988556
000050 f9 94 86 bd c2 22 9e bc 9e ad 0f bd d4 fe 94 bc
       -0.06571383 -0.019303683 -0.035077684 -0.018187918
000060 64 d6 85 3d 8d 3e 4b 3c 25 fd f5 ba f9 43 c0 bc
       0.065350324 0.01240505 -0.001876746 -0.023469912
000070 31 e9 57 3c 60 a4 3b 3e c5 5f 06 be 62 3a 49 3b
       0.013178156 0.18324423 -0.1312247 0.0030704965

context_transformer_0/kq_shared_bottleneck/norm/mul;context_transformer_0/kq_shared_bottleneck/norm/add;context_transformer_0/attention/key/einsum/Einsum;context_transformer_0/attention/key/add;context_transformer_0/attention/value/einsum/Einsum;context_transformer_0/attention/key/add/ReadVariableOp/resource1 f4 [32, 32]
000000 15 dc 98 3c d3 23 46 bd 8a 73 23 3c 2a f5 3f bd
       0.01865963 -0.04837401 0.009976277 -0.046864666
000010 9b f8 e2 bc 87 f5 83 3d 78 be b8 3d ef 90 00 bd
       -0.027706435 0.06443315 0.09020704 -0.03138822
000020 b3 e6 03 3d cc c5 e4 3d 88 d5 fa bd c8 c4 90 3e
       0.032202434 0.11170539 -0.12247759 0.28275132
000030 3a 4d 06 3e 86 df c1 3d 6d d0 41 bd 99 6d bf bd
       0.13115397 0.09466462 -0.04731791 -0.09347076
000040 69 64 c4 3d 02 8a 38 3e 3c e8 73 bd 73 42 ae 3d
       0.09589464 0.18021396 -0.059547648 0.08508768
000050 6e 08 3d bd 02 e7 03 be b9 ae b3 3c 02 79 c7 bd
       -0.046150617 -0.12881091 0.0219339 -0.09739877
000060 3c ed e9 bc 46 5f e4 bc fb da bf 3b 1b 5c c0 3e
       -0.028555505 -0.027877461 0.005854962 0.3757027
000070 7e f0 0d 3d 88 b7 b6 3d 3f 1c a4 bd 82 cf ee bd
       0.03465318 0.089217246 -0.080132 -0.11660673
000080 8b 0c 8f bc cf 0e 88 3d e9 15 b2 bc 22 97 62 3d
       -0.017462036 0.066434495 -0.021738963 0.055319913
000090 25 ab f3 3c 59 c2 c3 bd cf 2d 9b bd d8 d0 84 3d
       0.029744694 -0.09558553 -0.07577097 0.06485146
0000a0 61 1b 4e bc fa c1 f6 bd b3 a8 a7 3d a0 f9 96 be
       -0.01257977 -0.12048717 0.08186474 -0.29487324
0000b0 ee 7d f2 bd 05 87 1d be 25 a0 81 3d 13 5b 06 3e
       -0.118404254 -0.15383537 0.06329373 0.1312068
0000c0 d4 8c cd bd d6 64 2e be 13 26 ed 3d f5 bc e9 bd
       -0.100366265 -0.17030653 0.11579528 -0.11412994
0000d0 cf 58 89 3d 97 a6 61 3d 6b 70 e8 bc 1d 82 a5 3d
       0.06706392 0.055090513 -0.028373918 0.08081458
0000e0 86 79 84 3d 00 d3 1e 3d c7 21 b0 3b cb e1 ca be
       0.06468491 0.038775444 0.0053751203 -0.3962539
0000f0 58 d2 fb bc fb 26 d6 bd 9b 86 10 3e 52 84 65 3d
       -0.030739948 -0.10456654 0.14113848 0.056034394
000100 b9 4c e9 3b 0e 1c 93 bd 4c c0 26 3c 84 56 37 bd
       0.0071197418 -0.071830854 0.010177683 -0.044760242
000110 d9 7b 12 bd 6e 9d a5 3d 38 e4 7d 3d 60 ea 6e bd
       -0.03576264 0.08086668 0.061985224 -0.058328986
000120 74 31 ce 3b d9 e3 ff 3d 40 2b 94 bd 5d 4c 9f 3e
       0.0062925164 0.1249463 -0.07234812 0.31112948
000130 b2 db fc 3d 61 df 0b 3e 11 47 fb bc e0 3c ba bd
       0.12346591 0.13659431 -0.030673536 -0.09093642
000140 53 68 3c 3d 3a ac 15 3e 69 c7 9e bd ce ae f3 3d
       0.04599793 0.1461648 -0.07752878 0.11898576
000150 d5 a6 e4 bd c4 32 de bd f0 ca e6 3b 05 99 ea bd
       -0.11164633 -0.108495265 0.007043235 -0.114549674
000160 fe 69 43 bc 6b eb 87 bd 09 11 dd bc 85 93 d1 3e
       -0.011927126 -0.06636699 -0.026985662 0.4093286
000170 c9 67 ee 3c 08 19 9a 3d de 77 06 be 3d a0 cf bd
       0.029102223 0.075243056 -0.13131663 -0.10137985
000180 e9 72 6e bd 9a 72 2a 3c 48 32 87 bd a9 9a db 3d
       -0.058215056 0.0104033 -0.06601387 0.107228585
000190 e5 40 67 3d 5e 39 1a bd 18 2c 15 3d 31 b2 b6 3d
       0.056458373 -0.037652366 0.036419004 0.08920706
0001a0 05 20 1e 3d d5 d1 d7 3c d9 3d e1 be d9 ac 86 be
       0.038604755 0.026345173 -0.439925 -0.26303747
0001b0 cd b7 b6 3d 43 7f ba bd 1a ef 57 3d 79 04 36 be
       0.08921776 -0.091063045 0.05271826 -0.17775144
0001c0 a7 d0 a7 3d 30 0e 83 3d d8 6b ae be e2 db 1c be
       0.08194094 0.063991904 -0.34066653 -0.15318254
0001d0 46 0e a2 3e 2d cf 8e bd 84 69 e6 3d 2b a5 77 3d
       0.31651515 -0.069731094 0.11250594 0.06046025
0001e0 4c 4d 26 bc 37 f0 b9 bd cf b1 78 3d 48 a0 da 3e
       -0.010150265 -0.090790205 0.060716446 0.4270041
0001f0 4f f8 08 bd 74 94 0e be 42 ef 91 bd e3 e4 0c be
       -0.03343993 -0.13923818 -0.07125713 -0.13759188
000200 85 bb f7 bc a4 e0 52 3d d1 d1 ab bc 36 80 c4 3c
       -0.030240783 0.051483765 -0.020974072 0.023986917
000210 a4 4e 6d 3b b0 52 52 bd 06 d0 ce bd 50 96 3c 3d
       0.0036210204 -0.05134839 -0.10098271 0.046041787
000220 52 49 75 bb 6e f9 02 be 4a 98 f3 3d b6 3c 8f be
       -0.0037427736 -0.12790462 0.11894281 -0.27976006
000230 d4 31 08 be 9c ff e8 bd 37 20 cb 3c 74 cd cd 3d
       -0.13300258 -0.113768786 0.024795635 0.10048953
000240 7d 54 a3 bd 69 66 23 be ed 45 65 3d dc a3 04 be
       -0.07975099 -0.15957035 0.05597489 -0.12953132
000250 59 09 87 3d d0 af 0d 3e df e9 8e 3c 6d bc 9e 3d
       0.0659358 0.13836598 0.017445503 0.07750783
000260 a8 6c 43 3d 68 a9 c0 3d 8f 88 21 3c ac 80 b9 be
       0.047711045 0.09407312 0.009859218 -0.3623098
000270 1b 95 f3 bc 57 87 b0 bd bf 25 dc 3d 4d bc d4 3d
       -0.029734185 -0.08619564 0.10749387 0.10387478
000280 4a a9 ac 3c c2 39 71 bd 2a 91 40 bb 91 bb bc bc
       0.021076817 -0.058892973 -0.00293834 -0.023038657
000290 2d 2e e7 bc 38 a3 ad 3d 23 2a a6 3d 31 ee 8e bd
       -0.02822026 0.08478397 0.08113506 -0.06979025
0002a0 85 f7 b8 3c bb a4 17 3e 7f 25 83 bd e9 f5 a1 3e
       0.022578964 0.14808933 -0.06403636 0.31632927
0002b0 1e 4b 29 3e 2c 1c 08 3e 3d f2 bc bc 39 f6 10 be
       0.16532561 0.13291997 -0.023064727 -0.14156426
0002c0 40 cb 34 3d f9 8c 40 3e 0b d0 ae bd f3 d2 e1 3d
       0.044139147 0.18803777 -0.08535775 0.110265635
0002d0 18 9f cc bd 57 af 8a bd 76 60 83 3c 16 dd 8d bd
       -0.09991282 -0.06771725 0.016037207 -0.069269344
0002e0 9c 55 5c bd 3a 5c a3 bd d1 2c f2 bc 5f 7f c9 3e
       -0.05379258 -0.07976575 -0.029562386 0.3935499
0002f0 63 48 fc 3c 61 59 81 3d e6 dc ff bd 1c 66 d4 bd
       0.030796235 0.06315876 -0.12493305 -0.10371038
000300 85 40 67 3c 86 72 96 bd f9 f6 1a bc 63 d3 1c bd
       0.014114504 -0.07346062 -0.009458297 -0.03828753
000310 26 70 11 bd f6 f6 df 3d 58 42 9f 3d 2e e7 0d bd
       -0.035507344 0.10935776 0.07776326 -0.0346443
000320 54 33 84 3c 30 f2 e8 3d 78 34 1d be 26 11 99 3e
       0.016137756 0.113743186 -0.15352046 0.29895896
000330 d7 28 1c 3e 21 de 06 3e 6d 0c 83 bd 6b 5d 03 be
       0.15249954 0.13170673 -0.063988544 -0.12828605
000340 0e df a1 3d 1d 65 21 3e 10 03 9d bd 96 2b cd 3d
       0.079038724 0.15761228 -0.076666 0.10018079
000350 84 f8 1f bd 5b 2e 62 bd c3 6e dd 3c 96 53 b8 bd
       -0.039055362 -0.05521999 0.027030354 -0.09000318
000360 ee 8c d7 bc 93 4b 95 bd c8 b7 b1 3c 4a 72 c2 3e
       -0.026312318 -0.07289805 0.021694079 0.3797782
000370 62 a4 34 3d 2c 23 af 3d de e8 00 be 88 b2 9c bd
       0.04410208 0.085516304 -0.12588832 -0.0765124
000380 94 29 06 3d 52 9d a9 bd 2e 66 bb bb ab 2a 5c bd
       0.032754496 -0.082819596 -0.005718968 -0.05375163
000390 c8 34 e9 bc 6e 9c 04 3e 23 75 81 3d 78 a7 ba bc
       -0.02846755 0.12950298 0.0632117 -0.022784933
0003a0 2f 68 ca bb 35 8e f7 3d 9e fd d1 bd 2b 8d 9b 3e
       -0.0061769704 0.12087671 -0.10253452 0.3038114
0003b0 d6 e2 d6 3d c3 e4 1d 3e a0 79 63 bd a5 07 f5 bd
       0.10492484 0.15419297 -0.055535913 -0.11964349
0003c0 b7 01 64 3d 51 6e 40 3e 6d 6e 48 bd fe 05 db 3d
       0.055665698 0.18792082 -0.048933435 0.10694502
0003d0 61 df b6 bd df 5e c6 bd 64 a2 fd 3c 96 f7 95 bd
       -0.08929325 -0.09686064 0.030961223 -0.07322614
0003e0 4a df 1b bd d7 47 86 bd cf 91 03 bd f0 f3 b6 3e
       -0.038054742 -0.06556671 -0.032121476 0.35732985
0003f0 b4 16 7d 3d 5b 29 ba 3d 60 89 01 be 37 1b b2 bd
       0.06178923 0.09089919 -0.1265006 -0.08696597

context_transformer_0/kq_shared_bottleneck/norm/mul;context_transformer_0/kq_shared_bottleneck/norm/add;context_transformer_0/attention/query/einsum/Einsum;context_transformer_0/attention/query/add;context_transformer_0/attention/value/einsum/Einsum;context_transformer_0/attention/query/add/ReadVariableOp/resource;context_transformer_0/attention/Mul;context_transformer_0/attention/Mul/y f4 [32]
000000 9f 55 79 3d 5b f2 98 bd 0c 1d a8 3d 4d fb bf bd
       0.06087267 -0.07468101 0.08208665 -0.09374104
000010 40 f8 94 bd 5b 83 ba 3d 48 41 7b 3d 2b f1 ae 3d
       -0.072739124 0.09107085 0.061341554 0.08542093
000020 b5 b6 36 3e 3d a5 54 be 0a 79 31 be a0 55 3d 3e
       0.17843135 -0.20766158 -0.17331329 0.18489695
000030 2d bc 4a be 62 15 19 3e 1e a7 32 be 5d d5 a0 bd
       -0.19798346 0.14949563 -0.17446563 -0.07853196
000040 09 2f 56 3e be 5f 4f be ef aa 56 be 72 b5 4d 3e
       0.2091638 -0.20251366 -0.20963643 0.20088747
000050 8a 06 2c 3e 36 75 3a 3e 85 60 2f 3e 19 88 46 3e
       0.1679937 0.18208775 0.17126663 0.19387855
000060 4f 8e 84 3d f4 0b a5 3d 3e 7b ac bd a1 1e ae 3d
       0.06472456 0.080589205 -0.08421944 0.08501936
000070 cd 1a d4 bd c2 b9 0e 3e c4 90 5d bd 75 45 bb 3d
       -0.10356674 0.13938048 -0.054093137 0.09144107

context_transformer_0/kq_shared_bottleneck/norm/mul;context_transformer_0/kq_shared_bottleneck/norm/add;context_transformer_0/attention/query/einsum/Einsum;context_transformer_0/attention/query/add;context_transformer_0/attention/value/einsum/Einsum;context_transformer_0/attention/query/add/ReadVariableOp/resource;context_transformer_0/attention/Mul;context_transformer_0/attention/Mul/y1 f4 [32, 32]
000000 ff af 06 bb 3b 5c c7 3c 4e d1 0c bd 90 9b 9a bb
       -0.002055168 0.024335971 -0.034379296 -0.0047182515
000010 4b 1c c2 3c df d8 f4 bc 72 9f 7f 3c a3 36 c4 3c
       0.023695132 -0.029888568 0.01560198 0.023951834
000020 cd a7 46 3c 41 e5 c9 3b 31 6e c5 bd 89 a1 9b 3d
       0.012124968 0.0061613624 -0.09640158 0.0759917
000030 54 87 32 bc aa db b5 bb b3 3e 7e bc c7 94 e5 3b
       -0.010896523 -0.0055498676 -0.015517878 0.007006261
000040 87 28 a6 3c cf 01 ee 3a 1b da fc bb 34 bc cd 3c
       0.020282997 0.0018158498 -0.00771643 0.025114156
000050 a2 84 e5 bd 1c 96 3c bc a8 a4 00 3d 21 78 e4 38
       -0.11206938 -0.011510398 0.03140703 0.00010894263
000060 95 41 6f 3b cd e1 db 3c 22 e8 ed 3c 78 88 1b bd
       0.0036507596 0.026841069 0.029041354 -0.037971944
000070 4b e7 da 3b 15 f0 af bb 0c 41 bd 3b a1 54 bf 3b
       0.0066804043 -0.005369196 0.0057755765 0.005838946
000080 10 2e 21 bb 00 01 e2 bc de af e2 3c 70 f6 c7 bc
       -0.0024594106 -0.027588367 0.02767175 -0.024409503
000090 cd f4 f7 bc 20 fd c8 3c da 3f 81 bc e1 c8 09 bd
       -0.030268097 0.024534762 -0.015777517 -0.03363884
0000a0 10 c3 81 bb 85 a2 78 bb 43 ec cd 3d 53 0b a2 bd
       -0.003960021 -0.0037938666 0.10054829 -0.07912316
0000b0 57 92 dd 3c 83 8e 0b 3c a9 46 3a 3c f5 4f aa bb
       0.02704732 0.008517864 0.011369386 -0.00519752
0000c0 3a 7d 2f bc 2f f5 21 3c d0 29 14 bc a8 10 5f bc
       -0.010711009 0.0098851165 -0.009043172 -0.013614811
0000d0 08 6f c1 3d b1 19 da 3c a0 b7 ed bc 6b d2 16 bc
       0.09445006 0.026623579 -0.029018223 -0.009205441
0000e0 f6 80 65 bc 62 6c b8 bc 5d 74 c7 bc e3 65 86 3d
       -0.014007797 -0.022512618 -0.024347479 0.06562402
0000f0 9e d2 87 bc b3 8b 2b bb 77 81 91 bc 5d b4 97 bc
       -0.016579922 -0.0026175797 -0.017761929 -0.018518621
000100 97 c9 9a bb e3 78 89 3b fc b5 c5 bc 3a 22 ce ba
       -0.0047237384 0.004195319 -0.024134628 -0.0015726753
000110 ca 1e ec 3c dc c9 f9 bc d9 ae 94 3c 56 ac 03 3d
       0.028823275 -0.030491762 0.01814978 0.032146774
000120 34 15 87 3c 83 db 41 3c 65 ab be bd 67 a5 d1 3d
       0.016489603 0.011832121 -0.09310035 0.10236626
000130 41 2c 81 bc 17 b9 bc ba 06 8c 9a bb a9 ee 32 bc
       -0.015768172 -0.0014398423 -0.004716399 -0.010921159
000140 a3 8e 48 3c 1d 88 67 bc c7 17 49 3c c2 50 b9 3c
       0.0122410385 -0.014131573 0.012273735 0.022621516
000150 91 ad ee bd 7d ea 12 bc 7e 86 0a 3d 53 66 22 3c
       -0.11654199 -0.008967039 0.033819668 0.009912091
000160 c4 49 f5 3a ca ca b5 3c c0 0a 40 3c d1 b6 86 bd
       0.0018714 0.022191424 0.011721313 -0.06577838
000170 c6 4c f7 3c 73 e6 03 3a 33 80 0e 3c 93 06 0a 3c
       0.030187976 0.0005031593 0.008697557 0.008424419
000180 44 cb 5a 3d 52 cf 14 3c c5 df f4 bc 4c 78 f4 bc
       0.053416505 0.009082632 -0.029891858 -0.029842518
000190 0e e6 73 3c 99 16 c9 bb e5 3c 8d 3d 1b 23 6b 3d
       0.014886392 -0.006136727 0.0689638 0.057406526
0001a0 58 22 11 bd 64 5c 9b bc 93 b9 08 be 53 bd 0d 3e
       -0.035433143 -0.018964954 -0.13352041 0.13841753
0001b0 4d 70 9a 3b 04 7d e5 3c bd 7b 8f bc be 27 16 3d
       0.0047130943 0.028013714 -0.017515058 0.036658995
0001c0 46 09 b8 3c d3 c7 9d 3b 8b 49 55 3d 7f 02 0e 3c
       0.02246536 0.0048150807 0.05207209 0.008667587
0001d0 bd 58 48 3d de 6d 13 3e f0 84 fc bc d2 14 06 bd
       0.048912752 0.1439738 -0.030825108 -0.0327347
0001e0 9b f4 f1 bb 16 e6 9c 3c e1 7d 99 3d 88 26 d6 bd
       -0.0073838956 0.019152682 0.074947126 -0.10456568
0001f0 c7 ba fc bc 58 1e d7 3c 8d 93 26 bc 5f 41 be 3b
       -0.030850781 0.026259586 -0.010167015 0.0058061327
000200 96 d5 a3 3b c8 79 83 bc a3 1c a7 3c 68 3d a8 3c
       0.0049998267 -0.01604928 0.020399397 0.020537093
000210 44 29 b4 bc 06 1d b3 3c e5 91 9f bc bb b4 f3 bc
       -0.021992333 0.021864425 -0.019478748 -0.029749265
000220 08 b0 d9 bb 94 98 2a bc 71 27 c5 3d eb 27 b4 bd
       -0.006643299 -0.010412354 0.096266635 -0.08796676
000230 69 7f f0 3c e8 7d 3d b7 41 ca cc 3b 89 e7 27 3c
       0.029357629 -1.1294593e-05 0.0062496965 0.010248073
000240 3b cb 9c bc 46 49 06 3c 23 8f f6 ba 2b 4b fd bc
       -0.019139877 0.008196181 -0.0018810969 -0.030919632
000250 62 3d ec 3d b4 c6 e7 3b cf 54 ef bc 38 77 2c bb
       0.11535145 0.007073248 -0.029215245 -0.0026316177
000260 ff 2a ab bb 92 36 cd bc 58 48 d0 bc e4 7f 6f 3d
       -0.0052236314 -0.025050435 -0.025425121 0.058471575
000270 45 64 97 bc c2 fd 0a 3c 17 6c 75 bb 1a b2 6a bb
       -0.01848043 0.008483352 -0.003744846 -0.0035811723
000280 47 58 a1 3b 11 44 be 3c a7 70 68 bc 95 b4 ec 3b
       0.0049238536 0.023225816 -0.014187015 0.0072236755
000290 12 00 e2 3c 13 c7 18 bd ae 7c 9f 3c aa 38 d2 3c
       0.027587924 -0.037299227 0.019468632 0.025661785
0002a0 63 f7 a3 3a d7 17 66 b9 bb cd cb bd a7 0b cb 3d
       0.001250964 -0.0002194339 -0.09951349 0.09914332
0002b0 a2 62 e0 bc 8c 87 f5 bb e9 53 20 b9 a4 e3 24 3c
       -0.027390782 -0.007492965 -0.00015290048 0.010064039
0002c0 be c3 fe 3c 1c 65 63 bc 17 f7 2a 3c a5 63 ee 3c
       0.031099197 -0.013879087 0.010434887 0.029100249
0002d0 37 f9 d4 bd 7a e1 3e bc 0b 62 1a 3d 72 b1 0e bc
       -0.103990965 -0.0116504375 0.037691157 -0.008709298
0002e0 00 d0 00 3c 9b be 03 3d 41 34 54 3c a5 a6 7b bd
       0.007862091 0.032164197 0.012951911 -0.06143822
0002f0 09 18 08 3d f2 f6 14 3b 3c 65 a6 3c 26 5f 29 3b
       0.033226047 0.0022730199 0.020311944 0.0025844066
000300 44 54 36 bb 99 d1 87 3c c4 a7 02 bd 18 cb 1c 3c
       -0.0027821222 0.016579436 -0.031898275 0.009569906
000310 6c af b8 3c 87 a8 9c bc 0a b6 7c 3c 7b 48 25 3d
       0.022544585 -0.019123329 0.015424261 0.040352326
000320 57 ae e8 3b 44 8b fb 39 3a 38 fa bd b3 92 8d 3d
       0.007100861 0.00047978212 -0.122177556 0.06912746
000330 64 a8 d9 bc 36 70 0e bc 28 65 ab bb 63 00 ab 3b
       -0.026569553 -0.008693745 -0.0052305646 0.005218552
000340 bf fd 35 3c 86 d8 30 bc 5e 79 3a 3c ca 94 74 3c
       0.011107861 -0.010793811 0.011381475 0.014928052
000350 9a 16 cf bd 5e e1 22 bc d2 09 64 3c d5 d2 88 3a
       -0.10111733 -0.009941427 0.013918357 0.0010438809
000360 00 8d 65 3b 34 c7 1d 3d 1d ed 99 3c 60 c5 46 bd
       0.003502667 0.038520053 0.018789822 -0.048528075
000370 b2 93 04 3c 31 e5 80 3b 81 f5 97 3c de fe 5d 3c
       0.008091854 0.0039335717 0.018549683 0.013549535
000380 5c ee 75 bb ac cd 82 3c 66 24 9a bc 7b a0 de 3b
       -0.0037526106 0.015967213 -0.018816184 0.006794033
000390 51 9d c4 3c e6 66 db bc 57 b8 f4 3b 64 71 e9 3c
       0.024000796 -0.026782464 0.007468264 0.028496452
0003a0 96 45 36 3c c9 24 6b 3c 5b b1 c7 bd f3 5b c3 3d
       0.011124989 0.014352032 -0.09750625 0.09539022
0003b0 ea aa f2 bc a3 1a 8c ba 0e 3f 78 bc d3 59 e8 3a
       -0.029622514 -0.0010689091 -0.015151752 0.0017726965
0003c0 c4 22 79 3c d8 2f 91 bc dc ff 0b 3b b4 9c 79 3c
       0.015206043 -0.017723009 0.002136222 0.015235115
0003d0 30 28 dc bd 3f 0d dc bc d9 30 01 3d f8 2f 03 bc
       -0.10749853 -0.026861785 0.031540725 -0.008007042
0003e0 13 95 6f 3c b5 ea 20 3d 10 1c 91 3c 8e 1b 2c bd
       0.014622944 0.039286334 0.017713577 -0.042018466
0003f0 cb e5 cd 3c 63 3e 00 bb 35 26 5c 3c 91 2f 89 3c
       0.025133988 -0.0019568435 0.013436844 0.016746314

context_transformer_0/ffn_layer_0/intermediate_dense/einsum/Einsum;context_transformer_0/ffn_layer_0/intermediate_dense/Relu;context_transformer_0/ffn_layer_0/intermediate_dense/add f4 [32]
000000 f3 a7 a2 be 89 ec b7 be d2 ac 07 be a9 18 9c be
       -0.3176876 -0.3592265 -0.1324952 -0.30487564
000010 2e 0f e8 be 00 3a 8f be b2 2d d3 be dc fe 9d be
       -0.4532408 -0.27973938 -0.412458 -0.30858505
000020 57 be c6 be 45 8b 8e be 5e d0 a4 be 90 c5 a0 be
       -0.38817093 -0.2784063 -0.32190222 -0.31400728
000030 55 dd c2 be de 79 8f be c6 20 74 be 18 d8 db bc
       -0.38059488 -0.28022665 -0.23840627 -0.02683644
000040 34 c4 7a be 0d 19 c2 be e7 4f c4 bd 9a c4 a7 be
       -0.24488908 -0.37909737 -0.09585553 -0.32767183
000050 70 72 e7 be 41 66 dc be 61 7d 94 be e2 93 f9 be
       -0.45204496 -0.43046764 -0.29001907 -0.48745638
000060 a9 61 b2 be eb e0 6c be 06 ee 83 be b2 3f 35 be
       -0.34840134 -0.23132674 -0.25767535 -0.17700079
000070 ba 89 57 be e5 42 85 be a0 40 bc be 6c 67 1f be
       -0.21048632 -0.260276 -0.36768055 -0.15566796

context_transformer_0/attention/norm/mul;context_transformer_0/attention/norm/add;context_transformer_0/ffn_layer_0/intermediate_dense/einsum/Einsum;context_transformer_0/ffn_layer_0/intermediate_dense/Relu;context_transformer_0/ffn_layer_0/intermediate_dense/add f4 [32, 32]
000000 78 f4 8c 3c 75 46 f5 bd 1b de 88 3d ba f0 11 3e
       0.017206416 -0.11976329 0.06682988 0.14251986
000010 27 0d 3f 3e dc 3f 47 3c 64 ef 21 be c5 13 43 3e
       0.18657361 0.012161221 -0.15813977 0.1905051
000020 9d d8 17 3e ed 32 8e 3e 6a 3b 97 3d dd e4 82 3e
       0.14828725 0.27773228 0.07384379 0.25565234
000030 37 cd 31 be c7 c2 2e 3e c4 a1 0a bd c1 07 88 be
       -0.1736344 0.17066489 -0.033845678 -0.26568416
000040 b9 ca 26 3e 14 5b 80 3e 41 23 57 be 9b 28 9e 3d
       0.1628827 0.25069487 -0.21009542 0.07722589
000050 c3 4c e0 bd cf b2 02 3e 3c a0 9a 3d 72 0f 14 3d
       -0.10952141 0.12763523 0.075500935 0.036147542
000060 c9 78 2d 3d dd 28 84 bd 56 c6 55 3e 9c 44 e1 bd
       0.042351518 -0.064531066 0.2087644 -0.10999414
000070 64 af ae be b2 fe b0 3d 15 84 00 3e 75 5d 5b 3d
       -0.34118187 0.08642329 0.12550385 0.053555924
000080 dd 2a d0 3e 15 75 4d be a9 74 ed 3c b9 cc 72 be
       0.40657702 -0.20064195 0.028986292 -0.23710908
000090 ca cd 77 3d 3a 0e dd 3b ea 5f 8c 3e 64 27 56 3e
       0.06049899 0.0067460807 0.27416927 0.20913464
0000a0 47 49 9f bd 85 6f 1b 3e 5c 74 52 bd d4 31 9e 3d
       -0.077776484 0.1517926 -0.0513805 0.07724348
0000b0 ee b2 3b bb 3a fc 13 3e 08 0d 86 bc 6e 64 3f be
       -0.0028640586 0.14451686 -0.016363636 -0.18690655
0000c0 ab 3e 75 3e 2f 33 97 3d 24 7b 14 be 6a b7 72 3e
       0.23949687 0.07382809 -0.145001 0.2370278
0000d0 f1 28 48 be a5 56 5f 3e 46 0d 59 3e fe f6 f5 3d
       -0.19546868 0.21810396 0.2119647 0.12010001
0000e0 72 33 2e bd 82 e8 eb bd 49 b3 35 3d d7 dd 00 bd
       -0.04252953 -0.11518957 0.044360433 -0.031461563
0000f0 fd f0 77 3e 52 e9 98 3e 18 43 9b 3b cd b2 af 3d
       0.24213023 0.2986551 0.004738223 0.085790254
000100 22 8e c2 3d 4e 4c 66 be 11 b9 5f 3e 79 e6 f2 bd
       0.09499766 -0.22490045 0.21847941 -0.118603654
000110 15 70 1c 3e be 0f 19 be 50 8b 0d bd a5 68 9b 3e
       0.15277131 -0.14947411 -0.034556687 0.30353275
000120 fb bf 50 3d 0c 71 8b 3d 22 9d 08 be c8 f2 e0 bb
       0.050964337 0.06808671 -0.13341191 -0.0068648793
000130 92 13 43 3e 1e 6b 96 be ff 0e 9d 3d 16 b2 12 be
       0.19050434 -0.293786 0.07668876 -0.14325747
000140 dc 48 a6 bc c3 63 a0 3e 50 69 59 be b2 01 21 be
       -0.020298414 0.31326112 -0.2123158 -0.15723303
000150 1d 72 c1 3d 2b 71 5c 3e 35 ca ae 3e f0 83 01 3e
       0.094455935 0.21527545 0.34138647 0.12647986
000160 09 fa d5 3d 76 88 db bd 14 28 87 3d 50 c0 00 3b
       0.10448081 -0.10719387 0.06599441 0.0019645877
000170 b5 4d 93 3d a0 d5 02 3f a3 32 2f be f3 3a 20 bd
       0.07192556 0.51107216 -0.1710916 -0.03911872
000180 46 de 95 3d 3b fe 90 be e3 d7 15 3e 8c 31 9f 3d
       0.07317786 -0.28318962 0.14633135 0.07773122
000190 be 09 e3 3d c0 6a 33 3e f7 ea 27 3e 8a bd 93 bd
       0.110858425 0.1752119 0.16398226 -0.07213886
0001a0 a2 db 80 bd e8 3c 3e be 31 05 43 3e e8 80 17 3d
       -0.06291892 -0.18577921 0.19044949 0.03698817
0001b0 47 18 00 3e 0e f6 5c 3e e5 69 27 3e 34 33 32 be
       0.12509261 0.21578237 0.1634899 -0.17402345
0001c0 43 4a 42 3d 24 93 63 bd fa b4 91 be f3 ba e5 3d
       0.047434103 -0.055560246 -0.28458387 0.11217298
0001d0 8c 1a 39 3c 55 e4 16 3e 7c f7 49 3e e0 b6 f7 3d
       0.011297833 0.1473554 0.19723314 0.120954275
0001e0 24 d5 f1 bd 6a 33 c1 bb d6 45 bc 3e 92 2d bd be
       -0.118082315 -0.0058960216 0.3677203 -0.3694883
0001f0 46 70 f8 3d 39 60 8d 3d f2 6e a1 3c 30 7c b2 3d
       0.121307895 0.06903119 0.019706223 0.08715093
000200 59 95 1e 3e d3 f4 52 be 64 80 71 37 53 dd 0b bc
       0.15486659 -0.20601206 1.4394613e-05 -0.0085366545
000210 af 70 4b bc a1 a3 1a 3e 56 0b b9 ba ec bf 82 3e
       -0.012417003 0.15101482 -0.0014117758 0.2553705
000220 3e 11 56 3d a7 87 15 3e f7 47 0b be 31 74 92 3e
       0.052262537 0.14602529 -0.13601671 0.28604272
000230 5e 91 34 be 0d 82 df 3c bf 5a 95 3c 4c 5c 8e bd
       -0.17633578 0.027283693 0.018231748 -0.06951198
000240 da 53 d8 3d 9c de 4a 3e 48 97 18 3d 2f d7 cf 3d
       0.105628684 0.19811481 0.037253648 0.10148465
000250 77 df 4e be 8d 3a 22 bd a5 19 96 3e b0 09 cc 3c
       -0.20202433 -0.03960662 0.2931644 0.024906963
000260 6c 1f 93 bc a7 11 44 be d5 12 c9 3c db 89 a2 bd
       -0.017959319 -0.19147359 0.024545113 -0.0793645
000270 06 e6 11 3c f8 cb 0d 3e 72 d1 b0 3d 05 04 84 3d
       0.0089049395 0.13847339 0.086336985 0.06446079
000280 d0 95 a2 3e ff d0 38 be 35 fc e6 3d f7 dc a8 3d
       0.31754923 -0.18048476 0.112785734 0.08245271
000290 5d 02 df bc 2c 5f 7b 3d d4 a8 9c be c7 3c 6b 3e
       -0.027222807 0.06137006 -0.30597556 0.22972403
0002a0 7e b4 23 3d 63 c1 cd 3d 63 b4 1c be ff 87 f5 3d
       0.039967053 0.10046651 -0.15303187 0.1198883
0002b0 88 e6 5b 3e a6 c5 9a 3e 93 07 9e 3e 0c b2 98 3d
       0.2147466 0.3022892 0.30865154 0.07455835
0002c0 2b 4f 8c bb c2 02 84 3e a4 78 85 3d 55 a3 c7 3e
       -0.0042818985 0.25783354 0.06517151 0.389918
0002d0 05 92 c2 bd 8b 96 3e be ac f3 8e 3e 7c 7f 12 3e
       -0.09500507 -0.18612115 0.27920282 0.14306444
0002e0 56 eb f4 bc 79 57 7e bd 40 d3 e7 3c 96 3c 24 3e
       -0.029897373 -0.06209514 0.028298974 0.16038737
0002f0 37 45 c4 be 7e 8e 43 3d cd fd 95 3d 02 c9 a7 3e
       -0.38334057 0.047743313 0.07323799 0.32770544
000300 90 b2 c5 3e cd c5 bc bd ed 8c 09 be ca da 8f bd
       0.38612795 -0.09217415 -0.13432665 -0.070241526
000310 bb 47 bf ba d7 58 35 3e b0 e6 a0 3e cc 54 7d 3e
       -0.0014593521 0.17709671 0.31426 0.24739379
000320 69 a1 0b be 4b ab 5a 3e 7f 22 bf bc 03 bc bf 3b
       -0.13635792 0.21354406 -0.023331879 0.00585127
000330 65 ab c8 bd fe 25 90 bd 86 75 d1 3d 55 42 91 bd
       -0.09798316 -0.070384964 0.10227494 -0.0709273
000340 86 9f 65 3e 18 4e 2f 3e 6e fd 96 3d ca 79 49 3e
       0.22424135 0.17119634 0.073725566 0.19675365
000350 f1 fd 6c be 0b ab 28 3e ff 27 6a 3e 85 59 0b 3e
       -0.23143746 0.16471498 0.2286682 0.13608368
000360 51 3e 1c be fa d5 3f bd fd 42 d0 bc e2 64 97 3c
       -0.15258147 -0.046834923 -0.025422568 0.018480722
000370 6a 86 a2 3e 45 ad b1 3e 66 4e 8a bc 49 e0 00 3e
       0.31743175 0.34702507 -0.016883086 0.12585558
000380 06 62 d9 3e 07 86 d0 bd 61 e0 68 3d e3 ed ef 3d
       0.42457598 -0.10181814 0.05685461 0.11715295
000390 32 fa 64 be 5e fd 76 3e 62 1c 83 3e 1a 20 26 bc
       -0.22361067 0.2412009 0.25607592 -0.01013949
0003a0 cf ce c1 be 97 a5 2b 3e df e6 9e 3e bd 97 02 be
       -0.37853095 0.16762386 0.31035516 -0.12753196
0003b0 79 86 0d 3e a3 2c 93 be 9d 1f 38 bd cb 92 b5 bd
       0.13820828 -0.28744993 -0.044952024 -0.08865889
0003c0 93 fc 9d 3d b4 19 a3 3e 8f 8d 05 be b5 23 af bd
       0.0771419 0.31855547 -0.13042282 -0.085517325
0003d0 b7 a2 b4 bd 39 21 7f 3e d2 a8 77 3a 47 49 9a bd
       -0.08820098 0.24915017 0.00094474584 -0.07533508
0003e0 16 dd 50 bc eb 61 4e bd c8 47 39 be 8a 8a a4 be
       -0.0127480235 -0.05038635 -0.18093789 -0.32136947
0003f0 4a 12 bd ba 3c 52 1d 3e cf 36 40 be 6f 83 94 bd
       -0.0014425006 0.15363401 -0.18770908 -0.072516315

context_transformer_0/ffn_layer_1/intermediate_dense/einsum/Einsum;context_transformer_0/ffn_layer_1/intermediate_dense/Relu;context_transformer_0/ffn_layer_1/intermediate_dense/add f4 [32]
000000 40 e5 42 bd d1 08 92 be 65 09 94 bd 82 35 96 be
       -0.04758191 -0.2852235 -0.07228354 -0.29337698
000010 f8 6c 7c be 53 56 9a bc 65 46 d8 be 80 d7 d2 bd
       -0.24650943 -0.01883999 -0.42241207 -0.102950096
000020 38 66 02 bf 29 3b 30 bd fe 0c 1e be af df 04 be
       -0.50937223 -0.04302517 -0.15434644 -0.12975954
000030 e1 38 81 be 12 9c 0c bd bb 2c 67 3c e4 ca 87 be
       -0.25238708 -0.034328528 0.014109786 -0.2652198
000040 5a 78 7f 3d 76 54 83 be 01 a1 9c be 31 d8 30 be
       0.062370636 -0.25650376 -0.30591586 -0.1726997
000050 54 0c 80 bd a0 83 b3 bd 7f c1 7b be a2 2e 57 3d
       -0.062523514 -0.0876534 -0.24585532 0.052534707
000060 76 2e bf 3c 96 05 6f 3d 3b 72 ec bd fc 05 3a bd
       0.023337584 0.058354937 -0.11545225 -0.045415863
000070 66 53 ef bd c3 bc 69 3d 66 51 ab bd a0 97 08 be
       -0.11685829 0.057064783 -0.08365135 -0.1333909

context_transformer_0/ffn_layer_0/norm/mul;context_transformer_0/ffn_layer_0/norm/add;context_transformer_0/ffn_layer_1/intermediate_dense/einsum/Einsum;context_transformer_0/ffn_layer_1/intermediate_dense/Relu;context_transformer_0/ffn_layer_1/intermediate_dense/add f4 [32, 32]
000000 4f 45 6b 3d 8e 53 dc bd 38 c3 70 be f2 ff 15 3d
       0.057439145 -0.10758124 -0.2351197 0.03662104
000010 eb 93 f4 bc 83 06 48 3c 6a 69 f0 3c 0a b8 ca 3d
       -0.029855689 0.012208584 0.02934714 0.09898384
000020 93 ad ae bd f6 90 53 3e b7 11 2a 3e 9a 3e aa 3e
       -0.085292004 0.20660767 0.1660832 0.33250886
000030 2d e7 d2 be 21 a8 3c be c1 cd 42 3d 04 20 8f be
       -0.41191998 -0.18423511 0.047559503 -0.27954113
000040 0a 49 5a 3e bb 53 06 3e d9 6e ca bd 1c 45 04 3e
       0.21316925 0.13117878 -0.09884424 0.12916988
000050 50 e3 f2 bd ce ef fb bc eb e6 14 3e f4 53 c8 3d
       -0.11859763 -0.030753996 0.14541213 0.09781638
000060 7d 05 6f bd a6 12 d6 bb 4f b3 c2 bc 86 b2 ab bd
       -0.058354843 -0.006532985 -0.023767142 -0.0838366
000070 c6 94 66 3d 2c db 87 3e 32 89 91 bd ea aa 0e bc
       0.056294225 0.26534402 -0.07106246 -0.008707741
000080 d4 aa 8a bd 24 09 57 be e8 ee 96 3e a7 2f 29 be
       -0.06770864 -0.2099958 0.29479146 -0.16522084
000090 fe 89 8a 3e 28 9d e4 3e 9e c1 09 3e cf e1 06 3c
       0.27058405 0.4465115 0.13452765 0.008232548
0000a0 25 30 a2 be 8b ec a0 bd 4a f7 0b 3e 02 95 75 3e
       -0.31677356 -0.07857617 0.13668552 0.23982623
0000b0 5d dc 90 be 51 db 3f be cb 8c 5b 3e f9 83 76 be
       -0.28293124 -0.18736006 0.21440427 -0.24073781
0000c0 d1 ac 5b bb 2c 81 dd bc fe 59 d3 3c cb c9 17 3e
       -0.0033519755 -0.027039133 0.025799748 0.14823072
0000d0 35 cd 54 3e b3 7a c8 3c d6 6c 71 3d 66 8b 96 bd
       0.20781405 0.02447257 0.058941685 -0.07350807
0000e0 f3 0b 51 3e 4c 97 04 bb 51 be 78 3e 60 2c 98 be
       0.20414715 -0.0020231782 0.2429135 -0.29721355
0000f0 92 05 86 3c 93 8d 04 3e 2a 81 1a bd 75 aa 48 bc
       0.016360078 0.12944631 -0.037720837 -0.012247671
000100 7f b1 d4 3c 49 21 1a bd c3 b8 83 be c0 24 07 3e
       0.025963543 -0.0376294 -0.257269 0.13197613
000110 f5 e9 d7 3d c1 e7 c2 bc 8a 70 87 be 65 ca 83 bd
       0.10542671 -0.02379215 -0.26453048 -0.06435088
000120 9a dc 3f be a3 c6 01 3d 09 a0 a6 bd 9a 54 85 bb
       -0.18736497 0.031683575 -0.08135993 -0.004068923
000130 41 56 2c 3d 3e 83 21 3e 20 6f 37 3e 61 a1 92 be
       0.042074446 0.15772721 0.17913485 -0.28638747
000140 77 cd 01 be 5a 45 a0 bd a3 8e 1b bc 88 22 ab 3e
       -0.12676035 -0.07825728 -0.009494456 0.33424783
000150 77 e0 ca be 3c 1c 53 bd bd 48 fe 3d 0f 86 e0 3d
       -0.39624378 -0.0515406 0.124162175 0.1096307
000160 d3 8e 20 be b6 e9 a1 bd 3c 2c 53 be ce be ba 3e
       -0.15679483 -0.07905905 -0.20622343 0.36473697
000170 c6 70 b9 bd a5 c0 ca 3d be a2 a6 3d 9a 3e 80 3e
       -0.09054713 0.09900025 0.08136509 0.2504776
000180 fa fb 2c 3c 1b e4 37 3d 08 30 9b be a7 45 3e be
       0.010558123 0.044895273 -0.30310082 -0.18581258
000190 45 2a b7 3e a6 5e a0 3e 7f 01 48 be 55 80 69 3d
       0.35774437 0.3132221 -0.1953182 0.057007153
0001a0 d3 2b d4 be 1d de 1c be bc 8f c4 bd 1b e7 11 3e
       -0.41439685 -0.15319104 -0.09597728 0.14248316
0001b0 d1 47 ba 3d 58 e7 d5 3e 40 92 a7 3d de 79 8f 3c
       0.09095729 0.41778064 0.08182192 0.017514165
0001c0 62 7f a7 3c 38 53 12 3e 19 08 28 be 37 80 cb 3d
       0.020446483 0.14289558 -0.16409339 0.099365644
0001d0 1a b9 68 3e 26 3a 3a bc 49 ae 72 3d d8 ad 77 bd
       0.2272686 -0.011366403 0.059248243 -0.060468525
0001e0 56 0e 81 be b6 23 44 3d 89 2e 0e 3f 50 fd a2 3d
       -0.2520625 0.04788562 0.55539757 0.07958472
0001f0 93 6b 8a bd 21 c1 3f 3c bd 8b 96 be 64 91 bc bd
       -0.067587994 0.01170376 -0.29403487 -0.092074186
000200 a9 19 39 3e 62 5e c2 bd 40 17 dc be 9a 49 71 3e
       0.18076195 -0.09490658 -0.42986488 0.23563233
000210 10 2e f9 bb cd 3a fa 3e fb 5d 98 3c 0e 6b a5 bc
       -0.007604368 0.48872986 0.0185995 -0.02019265
000220 c3 1b bd be 75 f1 fb 3d 80 75 5b be a7 e8 b7 bd
       -0.36935243 0.12301914 -0.21431541 -0.08979922
000230 18 23 99 be 1d 39 ff bd 93 e9 03 be 1c 11 00 3e
       -0.29909587 -0.12462065 -0.1288207 0.12506527
000240 af dc 47 bd cf 9d 0d bd 38 53 79 3e ac e3 c5 3d
       -0.048794445 -0.034574326 0.24348152 0.096625656
000250 bc 03 c7 3c 9b 47 32 3e 9f b0 6a bd 19 3d 4e bd
       0.024293773 0.17410128 -0.057297345 -0.050351236
000260 6d 8e b1 be 36 91 70 bd 12 e3 c5 be a6 7b 51 3c
       -0.34678975 -0.058732234 -0.38649803 0.012785828
000270 58 7c 91 bd 3c cf 9e bc 45 49 61 3d 5b 1b dc 3d
       -0.07103795 -0.019385926 0.055001516 0.10747405
000280 b4 0f 97 3e 6e 59 09 3c b2 85 d3 3e db b5 06 3e
       0.29504168 0.008383138 0.4131294 0.1315531
000290 48 87 38 bd 56 59 0a bd 72 0e d6 bd e9 9c 85 3d
       -0.04505089 -0.033776604 -0.10451974 0.06524069
0002a0 8f 61 33 3e 71 5f 2b 3e 47 3c 7c be 77 88 be bd
       0.17517684 0.16735627 -0.24632369 -0.09303372
0002b0 dd df 1e be c6 fa 16 3e 7c 9c 6a bc a0 7f c2 bd
       -0.15515085 0.147441 -0.014319535 -0.09496999
0002c0 75 21 55 bd 5c 0b e9 3d 8d ab bf bd eb e4 4c 3c
       -0.05203386 0.1137912 -0.093588926 0.01250575
0002d0 d7 6b 71 bd 76 d0 04 bd fa d1 03 3e 96 41 60 3e
       -0.058940735 -0.032425366 0.12873068 0.21900019
0002e0 fc 74 b1 bd e5 a7 e7 bd 14 c0 ae 3b c9 1b c9 be
       -0.08664891 -0.1131132 0.005332956 -0.3927901
0002f0 20 3d e3 be a5 75 a7 bc 9e 2e 56 3d 59 64 97 3e
       -0.44382572 -0.02044184 0.05229055 0.29568747
000300 54 20 35 bd 64 df 8f bd 47 18 39 be 4b 43 20 3e
       -0.044220284 -0.0702503 -0.18075667 0.1565067
000310 69 64 9c be 17 de 4d 3e 91 a5 9e 3e ef 51 fd 3d
       -0.30545357 0.20104252 0.30985692 0.12369143
000320 c3 de b8 be 8a 92 68 3e d8 53 a3 be e6 89 be 3d
       -0.36107454 0.2271215 -0.31899905 0.09303646
000330 55 94 5d 3e 02 5b 3e be da 4f 3b 3e 0f e9 5f be
       0.21638615 -0.18589404 0.1829218 -0.21866249
000340 bc cf cf bd f2 f3 0e bd c9 24 ad 3d d8 42 00 3e
       -0.10147044 -0.034900613 0.08454282 0.12525499
000350 5b 27 ca 3d 0c 54 10 3c 36 2d c2 bd 02 61 69 be
       0.09870788 0.008809101 -0.094812796 -0.22790912
000360 75 23 96 be fd 71 7a 3c dd 2f fe bc 4f eb 1c be
       -0.29323927 0.015285966 -0.031028682 -0.15324138
000370 73 99 61 be c8 72 6d bc f9 3c 5f be 2c f7 e7 3c
       -0.22031192 -0.014492698 -0.21800603 0.028316103
000380 7c 54 89 3e 86 cc 95 bd aa 85 2c 3e f7 74 94 bd
       0.2682227 -0.073144004 0.16847864 -0.07248872
000390 27 e7 6a 3d 22 96 08 3c 2b ad 0d be 1f 1d e3 3c
       0.05734935 0.008336576 -0.1383559 0.027723847
0003a0 cd 75 9e be 1d c8 95 bd fb 39 9e be 68 65 77 3d
       -0.3094925 -0.07313559 -0.3090361 0.060399443
0003b0 23 e6 57 bb aa f0 6b bd 86 12 98 3e 65 f0 8a be
       -0.0032943569 -0.057602562 0.29701632 -0.2713653
0003c0 f6 0e 88 bc 56 9f 8b bd bb c9 35 be 48 83 b8 3e
       -0.016608696 -0.068175 -0.17752735 0.3603766
0003d0 cd 3b d8 bb 95 ca 1b 3b db ef 3d 3b 6c 1e 79 3b
       -0.0065989257 0.0023771871 0.0028982076 0.0038012518
0003e0 1d b6 04 be 97 02 b5 3d e9 a6 43 bc 2e 06 05 3d
       -0.12960096 0.088383846 -0.01194165 0.032476597
0003f0 7a 9a a5 3e bd df 90 3d 5b bd 55 bd 4d a4 55 bb
       0.3234442 0.07073925 -0.052182537 -0.0032599152

context_transformer_0/ffn_layer_2/intermediate_dense/einsum/Einsum;context_transformer_0/ffn_layer_2/intermediate_dense/Relu;context_transformer_0/ffn_layer_2/intermediate_dense/add f4 [32]
000000 a5 4c 55 be 55 81 2e bd 88 cc a9 bd 14 21 dc 3b
       -0.20830019 -0.04260381 -0.08290964 0.0067178104
000010 46 8d b4 be 69 9f 0d bd 4c 06 a1 3d a4 d6 f5 bd
       -0.35264033 -0.034575853 0.07862529 -0.1200383
000020 16 ad f3 3d 50 c2 5a bd 06 b2 90 bd ff 46 26 be
       0.11898248 -0.053407967 -0.07065205 -0.1623802
000030 3c f0 62 3d 47 39 bc be df 32 e5 3d ef 65 05 3d
       0.055404887 -0.3676245 0.111913435 0.032567915
000040 de 3d 8e be 4b e3 83 bd 0a a8 1b be f8 a2 6b be
       -0.27781576 -0.06439837 -0.1520082 -0.23011386
000050 34 f5 65 3e 70 84 8d bd 11 d8 5e be eb cd 80 be
       0.22456819 -0.06910026 -0.2176211 -0.25157103
000060 4b 18 95 bc a3 32 88 3c 5e 25 32 be d1 e0 44 3d
       -0.01820006 0.016625708 -0.17397067 0.048065964
000070 ef b4 8c 3e 66 7e c0 be ab 08 95 be bb f5 1e be
       0.2748179 -0.37596434 -0.29108176 -0.15523426
